open_spiel/python/examples/test_ppo_model.pth (torch, 45158 bytes, 11 tensors)

network.critic.0.weight f4 [64, 11]
00000000: a56f d53d e543 b73c f3de 8a3c c7dd d93d
00000010: 3cf9 4f3d b802 133e f3b3 ca3e c1df c53d
00000020: cd9e 733e 0eb2 05be 2c93 0fbe 66cd 3b3e
00000030: 91fc ac3d 7142 483e ef6f cbbe d6b7 813d
00000040: ef11 99bd c62e 463e ee86 ae3c bc13 07be
00000050: c19d ebbb a9b2 c73d 49a3 39be 2aa7 e4bb
00000060: 1125 c43e ce22 863e 1b55 1cbd 1d80 4a3d
00000070: f3de 83bc 15fb 5f3c 4dac 9f3e 600f 233c
00000080: be11 433e 4e8a 0e3e 943f 5b3d 65f1 893e
00000090: 76f5 0dbe ee8f dfbd 687f bcbe 946d b83e
000000a0: 85c6 11be edef 93bc 8192 853d bb99 9cbe
000000b0: 3e2c c8bd 88f1 e1bc f246 6ebd 5775 dd3e
000000c0: dc72 23bd 1123 e7bd 7b72 213e 2131 b2bd
000000d0: d027 dabe dd9a c2bd 2d23 a43d af27 46be
000000e0: 1b1c 69be cb92 d7bd 9dad 1bbe 585f 5d3c
000000f0: 6886 a1bd 6c49 6e3e 2a94 e4bd b184 dc3d
00000100: 819e 5ebd 1af7 d33e dc12 ae3d 56cd 0e3d
00000110: f1dc 04bd de09 53bd f8c2 1cbe 382f 78be
00000120: 975b fd3d 8e82 dc3d 366b cebd 6b33 7fbd
00000130: f067 35be 3d66 18be dabd 33be e116 18be
00000140: ecd7 b33c becb 90bd 739d 943d 7ba7 773e
00000150: 421d f33e da1c 843d 014c 4a3e 2256 843e
00000160: ee39 1b3e 34a5 38be c04e 23be b24d e5bd
00000170: 8ef3 923d a544 bc3e e022 bbbd 53e6 723e
00000180: 036c 62be 3049 ed3c 2617 2dbe 4958 923e
00000190: 1034 e5bc 326b 23be b66c 76bd 97a0 e0bd
000001a0: dc26 9abe f246 083d 1e02 13be f154 753e
000001b0: 728e 2ebc 6fcb 33bd bcee 6b3d 125f 1f3e
000001c0: 8730 1c3e d33b 7abc fa9a 9f3d 7bd0 7a3e
000001d0: bf92 323e 36e0 a9bc dc92 babd e71e 713e
000001e0: 0f93 bf3e ce59 923d 7285 033e 98fb bbbd
000001f0: dd48 56be 790a 0d3e 9c9b c33d d278 b7bc
00000200: 4bf5 b1bd d25a 42be 3d37 96bd 2dca ccbd
00000210: 5385 643c 187d fd3d 599e eebd b735 813e
00000220: ab8e 433e e589 adbd 4d58 0d3c 125b 15bb
00000230: b181 0f3e 1c25 b03e 9fdd c9be f3a7 82bb
00000240: 9b0f 4f3e f542 943e 0485 50be c779 f1bd
00000250: 72f5 2e3e b834 7abe 64c7 80be 5f04 12be
00000260: 7002 a33e b5da 523e 2803 85be e6c5 f7bc
00000270: f9ef a9bd 5cc2 a5bd 998c da3e 9766 a839
00000280: 9a5d c33e 9b41 ba3c 2247 cfbd e45b 24bd
00000290: 4c27 02be 2b9e 573c 992c a93d 55fe f43d
000002a0: bfcc debc c376 873e e6c5 883c 6a3d 043d
000002b0: 18dd cb3c c293 273d 353f 693e 7c18 2dbe
000002c0: f5c6 82bd c841 7bbe b962 2abe 7c6d 043e
000002d0: c8fa 133e c664 883d 4faa 51be 61b4 84be
000002e0: 0a46 32be 0c55 613e 2ee0 92ba 4a6b 0e3e
000002f0: a6b0 76be 24ea 2bbe cdbd cabd 94bc 10be
00000300: 86c7 abbd e175 be3d f65d 94bd 55f9 8e3e
00000310: cd9d e03d ba41 b63d 80a3 8f3c aa88 5abd
00000320: 1cec 6d3d 622d ae3c 2eb7 143e c84e 933d
00000330: a3cc a53e 9dd1 313d 2316 f3bd a459 013d
00000340: 5ba9 d3bd 0acd 343d 70db 4d3e 5746 883e
00000350: eead 6c3e 984f 153e 8e5d 843d 0eb0 d73d
00000360: 4d99 623e eb25 5a3c 2b26 973d 4282 a4bd
00000370: 54c6 19bd 9286 84bd 91de 2dbe 0a67 02be
00000380: a137 2fbe 485b 973e 175d 1ebd a176 a23c
00000390: 7567 d53c 82c9 8b3d 0e84 43be 912b 88be
000003a0: 2f42 843d 4c2a e8bd 941a c9bd 341c c43e
000003b0: 8ee5 873d eb54 34be bcc9 c13d f8ce d13e
000003c0: 824f c73d b73d c03c 929c 343e adb1 c33b
000003d0: f923 d9bd 09af 56be d4ab 2c3e 5f3c 10be
000003e0: 7a9e 403c ce94 213e 8a50 2abd b804 b9bd
000003f0: b92e 5a3e 2b8a 3bbe 157a a9bc 46b6 45bd
0.10421685 0.022371242 0.016952014 0.10638004 0.050774798 0.14356506 0.39590415 0.09661818
0.23791046 -0.13056204 -0.14020985 0.18340072 0.08446611 0.19556595 -0.39733836 0.06333892
-0.07474124 0.1935378 0.021304574 -0.13191122 -0.0071904366 0.097508736 -0.18128695 -0.0069779353
0.3830953 0.2619843 -0.0381671 0.049438585 -0.016097521 0.013670702 0.31186143 0.009952396
0.19049737 0.13919947 0.05352743 0.26941982 -0.13863167 -0.10916124 -0.36815953 0.360211
-0.14235885 -0.018058741 0.06522084 -0.30586037 -0.097740635 -0.027580991 -0.058173127 0.43253586
-0.03990446 -0.11285985 0.15766327 -0.08700777 -0.426085 -0.09502194 0.08014522 -0.19351076
-0.22764628 -0.105260454 -0.15202947 0.013511501 -0.07886964 0.23270196 -0.111610726 0.107674964
-0.05435038 0.4139946 0.08499691 0.034863792 -0.03243727 -0.051523082 -0.1530875 -0.24236763
0.12370985 0.10767089 -0.100790426 -0.062304895 -0.1771543 -0.14882751 -0.17552891 -0.14852478
0.021953546 -0.07070111 0.072565936 0.24184982 0.4748326 0.064508155 0.19755556 0.25846964
0.15158817 -0.1803177 -0.1594801 -0.1119646 0.071753606 0.36771122 -0.09137511 0.23720674
-0.22111516 0.028965563 -0.16903362 0.2858298 -0.027978927 -0.1595886 -0.06016227 -0.1096813
-0.30107772 0.033270784 -0.14356276 0.23958184 -0.010654079 -0.04389518 0.05760072 0.1556361
0.15252887 -0.015273052 0.07793231 0.24493591 0.17438792 -0.020736795 -0.091100425 0.23546945
0.37416884 0.07146035 0.12843874 -0.09178847 -0.20926233 0.13773526 0.095511645 -0.022396479
-0.08689364 -0.18979958 -0.073347546 -0.099994995 0.013947803 0.12377375 -0.11651296 0.25236294
0.19097392 -0.08473567 0.00862701 -0.0022789878 0.14014317 0.34403312 -0.39426896 -0.0039873063
0.20220797 0.28957334 -0.20363241 -0.11790805 0.17085817 -0.24434173 -0.25152123 -0.1425948
0.31837797 0.20591243 -0.2597897 -0.030245733 -0.08297724 -0.08093712 0.42685392 0.00032119892
0.3815735 0.022736361 -0.101209894 -0.040126696 -0.12710303 0.013160269 0.082604595 0.119625725
-0.02719724 0.26457796 0.016695928 0.03228513 0.0248857 0.040912397 0.22778018 -0.16903871
-0.06385604 -0.24536812 -0.16639222 0.1293239 0.14451134 0.06659846 -0.20475124 -0.25918868
-0.1740953 0.22005099 -0.0011205727 0.13908115 -0.24090824 -0.16788536 -0.09899483 -0.14134437
-0.083876655 0.09299827 -0.07244484 0.279246 0.10967598 0.08899255 0.017534018 -0.05335299
0.0580865 0.021261875 0.14523003 0.07192761 0.32382688 0.043412793 -0.118694566 0.03157963
-0.10335036 0.044140853 0.2010324 0.26616165 0.23113224 0.14581144 0.06463157 0.10531627
0.22128792 0.013314704 0.07380327 -0.08032657 -0.037542656 -0.0647098 -0.16979434 -0.12734619
-0.17111064 0.2956183 -0.038662996 0.019831957 0.026050309 0.06825544 -0.19093344 -0.2659574
0.06457936 -0.113361925 -0.098195225 0.38302767 0.06635581 -0.17610519 0.09462306 0.40978217
0.09731962 0.023466928 0.17637852 0.0059721083 -0.10602564 -0.20965208 0.16862422 -0.1408553
0.011756534 0.1577942 -0.041580714 -0.09034103 0.21306886 -0.18314426 -0.020688096 -0.048269533

network.critic.0.bias f4 [64]
00000000: 0000 0000 0000 0000 0000 0000 0000 0000
00000010: 0000 0000 0000 0000 0000 0000 0000 0000
00000020: 0000 0000 0000 0000 0000 0000 0000 0000
00000030: 0000 0000 0000 0000 0000 0000 0000 0000
00000040: 0000 0000 0000 0000 0000 0000 0000 0000
00000050: 0000 0000 0000 0000 0000 0000 0000 0000
00000060: 0000 0000 0000 0000 0000 0000 0000 0000
00000070: 0000 0000 0000 0000 0000 0000 0000 0000
00000080: 0000 0000 0000 0000 0000 0000 0000 0000
00000090: 0000 0000 0000 0000 0000 0000 0000 0000
000000a0: 0000 0000 0000 0000 0000 0000 0000 0000
000000b0: 0000 0000 0000 0000 0000 0000 0000 0000
000000c0: 0000 0000 0000 0000 0000 0000 0000 0000
000000d0: 0000 0000 0000 0000 0000 0000 0000 0000
000000e0: 0000 0000 0000 0000 0000 0000 0000 0000
000000f0: 0000 0000 0000 0000 0000 0000 0000 0000
0.0 0.0 0.0 0.0 0.0 0.0 0.0 0.0
0.0 0.0 0.0 0.0 0.0 0.0 0.0 0.0
0.0 0.0 0.0 0.0 0.0 0.0 0.0 0.0
0.0 0.0 0.0 0.0 0.0 0.0 0.0 0.0
0.0 0.0 0.0 0.0 0.0 0.0 0.0 0.0
0.0 0.0 0.0 0.0 0.0 0.0 0.0 0.0
0.0 0.0 0.0 0.0 0.0 0.0 0.0 0.0
0.0 0.0 0.0 0.0 0.0 0.0 0.0 0.0

network.critic.2.weight f4 [64, 64]
00000000: 4f0e 95bb ac30 14be 2b8b a3bd d90f 32be
00000010: 0122 9b3d 36c8 913d 8b9e 8f3e 3fb5 3abe
00000020: 941c 4dbd 4787 f6bd 7ec4 4fbe a528 9c3e
00000030: 4e79 0e3d 4bd1 cebc 86d1 143e 8d8f 9f3e
00000040: b235 ddbd a419 80be b6a0 03be 45c1 5d3e
00000050: f023 66bc 242a c03d bc8b bd3d a945 5ebe
00000060: 1d26 513d e998 453e e47e 45bd fb24 c13d
00000070: 8f3e 39be ba84 e5be 6a0c 2bbe 7fe3 42bb
00000080: c080 e23c 5b18 0b3d 86a9 92be 98ab 12bc
00000090: ba9b 93be b915 4c3e 1a6a ffbd d4a7 a8bd
000000a0: cb7b a9bc 2cd2 483c 0c0a 21bd 4be0 c13d
000000b0: 8a29 7d3e a1b0 29bd dad6 abbd 2828 0d3d
000000c0: e34c 13be 14f3 a23d 6836 d13d bf98 283e
000000d0: 37de 643d a551 98bd c1dd edbe e9c6 343d
000000e0: 9458 443e 5e94 87be e1c9 9dbe f3bc 6bbe
000000f0: 2347 533e afe4 903e d67e 193e 1c5d 343e
00000100: f094 143e 17b8 07be 0a5a 4a3e 983f 543e
00000110: 14f6 343e 5402 e93b 5caf ea3c 8e68 043e
00000120: fda0 f03e c6fb 613c 7e12 633e 0f78 013e
00000130: 093f c2be 9d16 3b3e 6620 1ebe c496 a7be
00000140: c577 683c ebea 2bbe 8edd 84bd 6002 edbd
00000150: dd1f b7be 7000 853d 5062 7c3e 9215 9ebe
00000160: f375 fa3d b1c7 ce3d ba0d cd3d e899 803c
00000170: 8534 863d 34d9 b1be 14d7 3e3d d926 a13d
00000180: 3423 503d 8299 373e 9fc1 403a 1b15 d23d
00000190: c953 72bd 60ea 0f3e 7f53 2f3e dd9d 0fbe
000001a0: 2eec 51be 8943 4fbe 9e42 b03d 13fe b93d
000001b0: c041 8b3e 16d3 ebbd 271f 7a3c 06b4 afba
000001c0: 7538 2ebd 1e0b febd 5cef 8d3e 99e5 d83d
000001d0: 8a8e a53c 9106 333e 6d4a 713e 40de 85be
000001e0: e925 853e 80c9 af3d 2885 4f3e da97 64bd
000001f0: dae0 bbbd 5904 4abe 5698 b23c bb73 46bd
00000200: ed03 b6bd 82e6 bfbc 4549 a53b 5e0d 12be
00000210: b770 ed3c 6826 86bd a0ae 3bbd 2bdd c8bd
00000220: 0b29 d23e fa4b df3e 5882 ab3e f727 913d
00000230: 42a8 883e f63c e6bd 2fe2 6dbe e80b bd3d
00000240: b4ac 2b3e 93e9 a0be 5ce1 1e3e d33f 833b
00000250: 45df 0bbb 0d5b 453e e63d 6abe 6375 10be
00000260: e297 1ebe 5a79 793e 86d5 4a3e 2caa 503e
00000270: c091 bfbd da18 ee3d 0311 a63c 3dbd 6fbe
00000280: fc6c 603e bedd c7be 7a13 473e 3d41 543e
00000290: 8665 c2be 192e ea3c d08d e23b 1516 b73d
000002a0: 0023 0e3e 3bbc 3b3e 01c9 e5bc 8a4a 2abe
000002b0: 12c5 dcbd 689e e5bd 01dd c5bd 237f 4a3e
000002c0: 3729 0bbe aece 04be e93a 063d 2f38 86bb
000002d0: 4a34 c43d fa91 f93d c0a2 2dbe 11e5 ce3d
000002e0: fe3d 14be 89d5 9e3e d616 21bd 73ac c0bd
000002f0: 500d 00bd 3071 debd fb32 c1bc 6c70 273d
00000300: c255 0b3d a593 7bbc 21f2 5dbd 2c5d bb3c
00000310: 6a96 82be 5c2e 5cbd 99b3 953c b792 b13e
00000320: e550 6d3e 43e3 443e ebe5 833c 63fa d63c
00000330: 76fb 863e 0c60 7e3e ec2a 823d d8c1 02be
00000340: 07ed 433e 9370 623e 2372 343e 2b0f 8e3d
00000350: 6533 b1bd 328a 1c3c 9a17 e3bc 672d c2bd
00000360: 81aa 023c e75d 4cbe 1f92 553e 33c9 e13d
00000370: 67f4 19bd dd67 6abe b5be a9bd 6e8f 2d3d
00000380: 496a 10bc 93ee fe3b 0882 8cbe ce64 143c
00000390: 5669 713e 3988 b23a ce66 183e 921a 1abe
000003a0: c7ff aa3e b2a5 9d3d c3f1 c9be 971c bc3e
000003b0: 7d17 8e3d fc30 943e 3eb8 d9bd cfb4 2ebe
000003c0: 9b76 a5be fb74 aebd 7aba 78be 447b abbe
000003d0: 8b0e bdbd 479d 613e a1a8 7dbe 30ab be3d
000003e0: dc65 e73d cc64 15be d967 dabd 1f69 d83c
000003f0: bb63 013d a71b b4bd 3107 5abe d9c3 55be
-0.004548825 -0.14471692 -0.079855286 -0.17388858 0.07574845 0.07118265 0.28050646 -0.18233202
-0.050076082 -0.12037521 -0.202898 0.3049976 0.034783654 -0.025246283 0.14533052 0.31164208
-0.10801257 -0.25019562 -0.12854275 0.21655758 -0.014046654 0.09383038 0.09255168 -0.2170626
0.05106174 0.19296612 -0.048216715 0.094308816 -0.1809027 -0.44827825 -0.16703954 -0.002973765
0.027649283 0.033958774 -0.2864496 -0.008952044 -0.28829747 0.19930162 -0.12471409 -0.08235136
-0.020688912 0.01225714 -0.039316222 0.094666086 0.24722877 -0.041428212 -0.08390589 0.034462124
-0.14384799 0.0795652 0.10215455 0.16464518 0.055875983 -0.074374475 -0.46458247 0.044135008
0.19174415 -0.26480383 -0.30818084 -0.23021297 0.20632605 0.28299472 0.1498979 0.17613643
0.1450994 -0.13253818 0.1976091 0.20727384 0.17671996 0.0071108732 0.028648071 0.1293051
0.46997824 0.013792938 0.22175023 0.12643455 -0.37938717 0.18270345 -0.15442047 -0.32732213
0.0141887115 -0.16788833 -0.06487571 -0.115727186 -0.35766497 0.06494224 0.24646878 -0.30875832
0.12229528 0.10096682 0.10012384 0.015698388 0.06552986 -0.34736025 0.046591833 0.07868738
0.050814822 0.17929652 0.00073530705 0.10257932 -0.059161935 0.1405425 0.17121695 -0.14025064
-0.20500252 -0.20240606 0.08606456 0.09081664 0.271986 -0.11514871 0.015266216 -0.0013405092
-0.04253431 -0.12404464 0.2772168 0.10590667 0.02020957 0.17482974 0.23563547 -0.26146126
0.26005486 0.08583355 0.20265639 -0.05580888 -0.091737464 -0.19728221 0.021801155 -0.048450213
-0.088874675 -0.023425344 0.005044135 -0.14262912 0.02898441 -0.06550294 -0.045820832 -0.098078094
0.41046938 0.43612653 0.33497882 0.07087701 0.2669087 -0.11242096 -0.23230813 0.092307866
0.167651 -0.31428203 0.15515655 0.004005411 -0.0021342796 0.19273014 -0.22875175 -0.1410728
-0.15487626 0.24362698 0.19808015 0.20377415 -0.093539715 0.11625834 0.020271784 -0.23412032
0.21916574 -0.39036363 0.19441023 0.20728011 -0.3796808 0.028586434 0.006913878 0.08939759
0.13880539 0.18333523 -0.028049948 -0.16629997 -0.10779776 -0.11211854 -0.09661294 0.19775061
-0.13589941 -0.12969467 0.032771025 -0.004096053 0.09580286 0.12186046 -0.16956615 0.10102285
-0.14476773 0.3102229 -0.03932842 -0.09407892 -0.031262696 -0.108614326 -0.02358388 0.0408787
0.034017332 -0.015355025 -0.05418599 0.022871576 -0.25505382 -0.05375515 0.018274115 0.34682247
0.2317539 0.19227318 0.016100844 0.02624244 0.26363724 0.24841326 0.06355843 -0.12769258
0.19133388 0.22113256 0.17621665 0.06936487 -0.08652381 0.009554433 -0.027721215 -0.09481316
0.007975222 -0.19957696 0.20856522 0.11024704 -0.037586596 -0.22891183 -0.082883276 0.042373113
-0.008814403 0.007779905 -0.27442956 0.009057237 0.23575339 0.001362092 0.14882967 -0.15049198
0.33398268 0.076976195 -0.39442262 0.36740562 0.06938074 0.28943622 -0.106308445 -0.1706116
-0.3231705 -0.08518406 -0.24289885 -0.33492482 -0.092312895 0.22032653 -0.24771358 0.09309995
0.11298725 -0.14589232 -0.106643386 0.026417313 0.03158925 -0.08794337 -0.21291806 -0.20875491

network.critic.2.bias f4 [64]
00000000: 0000 0000 0000 0000 0000 0000 0000 0000
00000010: 0000 0000 0000 0000 0000 0000 0000 0000
00000020: 0000 0000 0000 0000 0000 0000 0000 0000
00000030: 0000 0000 0000 0000 0000 0000 0000 0000
00000040: 0000 0000 0000 0000 0000 0000 0000 0000
00000050: 0000 0000 0000 0000 0000 0000 0000 0000
00000060: 0000 0000 0000 0000 0000 0000 0000 0000
00000070: 0000 0000 0000 0000 0000 0000 0000 0000
00000080: 0000 0000 0000 0000 0000 0000 0000 0000
00000090: 0000 0000 0000 0000 0000 0000 0000 0000
000000a0: 0000 0000 0000 0000 0000 0000 0000 0000
000000b0: 0000 0000 0000 0000 0000 0000 0000 0000
000000c0: 0000 0000 0000 0000 0000 0000 0000 0000
000000d0: 0000 0000 0000 0000 0000 0000 0000 0000
000000e0: 0000 0000 0000 0000 0000 0000 0000 0000
000000f0: 0000 0000 0000 0000 0000 0000 0000 0000
0.0 0.0 0.0 0.0 0.0 0.0 0.0 0.0
0.0 0.0 0.0 0.0 0.0 0.0 0.0 0.0
0.0 0.0 0.0 0.0 0.0 0.0 0.0 0.0
0.0 0.0 0.0 0.0 0.0 0.0 0.0 0.0
0.0 0.0 0.0 0.0 0.0 0.0 0.0 0.0
0.0 0.0 0.0 0.0 0.0 0.0 0.0 0.0
0.0 0.0 0.0 0.0 0.0 0.0 0.0 0.0
0.0 0.0 0.0 0.0 0.0 0.0 0.0 0.0

network.critic.4.weight f4 [1, 64]
00000000: 6005 0a3e bc33 3dbd becd 613d a25a a23d
00000010: 8ea6 0e3c 9ee2 81bd 7f48 103e a7ff 9f3d
00000020: f88a 99bd d865 04bc 5764 aebd 5266 993c
00000030: 5963 b33d 6e91 423d 3cd4 b63c d871 68be
00000040: 354a 4a3d b25a 02bc cd36 103d 54ab 013d
00000050: 920c 51be fcbb 9fbd 41d0 103e 772d bbbe
00000060: 5c15 a53d 2b65 4bbd b355 0dbd cb98 ecbd
00000070: 27f5 babd 6420 e73b ee0c 88bd 19a2 54be
00000080: 599b 6abd 4a7b f33d 791d 25bd 8e03 083e
00000090: a3a1 a8bd c0f1 c2bd d36f 6e3d f5ab 883d
000000a0: 1de1 7ebe 9f24 373d da08 01be 4ea9 a83d
000000b0: 078d 93bd d115 f03c 8b3b 26be 4e3e ee3d
000000c0: 5e5e 9c3e 7829 c33d 4391 dd3b 178e bd3d
000000d0: 185e 23be 5adb 5e3e c6a8 473e 24c1 533e
000000e0: 4cbc b3bd 008b c7bc f174 d2bd 9a33 8e3e
000000f0: 1be8 863d f006 053e 138d 71bd 5f39 16bd
0.13478613 -0.046191916 0.05512785 0.07927443 0.008706702 -0.06342052 0.14090155 0.07812434
-0.07497209 -0.008080922 -0.08515232 0.018725548 0.087591834 0.047501974 0.022317998 -0.22699678
0.049387176 -0.007956194 0.035208512 0.03165753 -0.20414951 -0.07799527 0.14141943 -0.36558124
0.080607146 -0.04965703 -0.034505557 -0.115525804 -0.0912879 0.007053422 -0.06643091 -0.2076496
-0.057277057 0.1188875 -0.04031131 0.13282606 -0.08233955 -0.095187664 0.058212113 0.06673423
-0.24890561 0.04471266 -0.12601033 0.08235417 -0.07204633 0.029307278 -0.16233651 0.116329774
0.30540746 0.09529394 0.0067617013 0.09255617 -0.15953863 0.21763363 0.19497976 0.20679146
-0.08776149 -0.024358273 -0.10276211 0.27773744 0.06587239 0.12990928 -0.05897243 -0.036675807

network.actor.0.weight f4 [64, 11]
00000000: 071d 003c dce9 01be da89 9b3d f703 dfbc
00000010: 91d1 6a3e f653 50be 6743 87be 4bcb 4bbe
00000020: af41 fa3d ec26 bdbe ae54 30bd 8079 233e
00000030: fae3 7bbc 2c6a 673e 4cb1 f7bd 8028 eaba
00000040: 4c67 713d 53da edbd 69f9 fbbc 27c2 a5bd
00000050: 8ddd 9c3e 3bf7 fa3d e39c 5b3e 9a40 05be
00000060: e30f 06bc 2605 4bbe 721b 4abe 8149 273e
00000070: 2b49 813d bcf2 dc3d cb90 403d d4e3 823e
00000080: 6d76 a63d 83d6 8d3e b3a8 0f3e 44f7 713d
00000090: b1a4 90bd 3589 803d a9de 58bb 90bb 0a3e
000000a0: 4890 0f3e a511 953b c12c ccbd 1233 6e3d
000000b0: 743d 74be ccfe 90bd cd5c 003e dcef 313e
000000c0: 047c d43c f9a1 3c3e 58e5 d3be bf99 c83b
000000d0: 1623 373c ad40 34bb 40d0 cb3d d4c0 463e
000000e0: 5e99 1c3e f6a1 79be ca03 9abc 135e 33be
000000f0: fb30 3bbe a25e 3c3e bc5f c1bd 529d b5be
00000100: b53c 2c3e cb97 a73d 7f09 39be 3eb1 8f3b
00000110: 18f4 f23d de95 913e 9883 9ebe 2de2 4e3e
00000120: 5204 efbd 6e63 a9bd c2c8 dabd 1839 063e
00000130: d317 983d 2e60 edbd d386 ecbe 231d a3bd
00000140: c2a3 3e3b 0985 2d3e c9d6 b63d b94a 033e
00000150: 4d65 15bd a119 e6bd 8f32 903e 409d 05be
00000160: a023 a7be 0471 73bd 34c8 b3bc 6829 06be
00000170: 0c10 dabc 8588 583e 4b49 93bd 523e 38be
00000180: 3db9 59be ead8 6abe d820 063f 33e7 4f3e
00000190: ff52 ccbc 29e7 9d3d 61ff e83e 5e6b 173d
000001a0: 32aa 7b3e 71bf 513d 094c 92bd bd34 333e
000001b0: 8b71 9e3e 3ab0 843d 5e8d 84bd c13b 723e
000001c0: 8f78 943e 921c adbd ca46 8abe 6590 71bc
000001d0: 81c0 6d3d a8e2 a8be 3156 9bbd 2a6e 90be
000001e0: eaa6 f43b a6a7 1ebe 522a a5bc 945b 83bd
000001f0: a321 eb3d 4a06 e53d 691c 883e 4f9e e23c
00000200: b714 c33d 6d7c 803e 9a4a 30bd d145 5ebd
00000210: 0592 303e 1e53 b6bd a801 a23e 7766 bbbd
00000220: 25f4 94bd e701 12bd d6f3 0bbe 81f4 2abe
00000230: dd66 053c 6b4a 5c3e 73cd af3b 48f4 ebbd
00000240: f7d4 c7bd a6f0 9d3e abc7 683e df9a fc3d
00000250: 59ab e03d 1201 27bc 7c2b 9ebd d137 b73d
00000260: 6fcd a53d c181 74bc 6282 283e 1ac3 213e
00000270: 872b b6bc 4076 80bc e570 db3d 26b1 8cbe
00000280: 33b8 21be 6eb8 893c 8230 a2bd 5cf6 b83e
00000290: e590 f3bd 04f9 d2bd b7a1 2e3d 4985 b03e
000002a0: 280c 54bd c6de 693e 1bd4 74be 86d7 c93d
000002b0: 5a6a 1e3e a3c8 7c3d 34c7 283e c6ae 083e
000002c0: ba6d 943d af0f 5c3e 287a 01bd 3eac f73d
000002d0: 53c6 d33d 41c7 4cbe 59f6 7d3e e718 a4bd
000002e0: 40c1 913d 79fc 4d3e a1fb 553e 37c7 243d
000002f0: 1f59 6b3e 955b 913d 3115 f73d a365 043f
00000300: 5a29 7dbe 092d 0cbe 5b6f 88be 7622 84be
00000310: 5e09 28bd 812d 68bd 1d63 163e 0c97 fa3c
00000320: 9d6f 3cbe 0a67 bdbe 047d cb3c a68d 043e
00000330: f450 323e 3b17 ab3e 81fe 683c 4bad 533c
00000340: c845 043e 40eb 90bd 61fa bebe c4b2 5abd
00000350: 3163 a43d 786e 923e a455 89be 47db 8b3e
00000360: 6d3b 723d a6b0 213d 9814 24be fe75 eb3c
00000370: 5481 76bd 7b66 ef3d c7a6 1ebe f49a bfbe
00000380: 35f7 d539 b849 343e efcc 30bd f0e5 4ebd
00000390: b161 dabc dba9 0cbe 6960 a4be 2069 86be
000003a0: a57f ce3c 4956 a5bc 4229 ae3c c20b 94bd
000003b0: 5bfd 19be 6743 bfbd 70c8 1a3e 3ca8 863e
000003c0: f07e dcbd dcf6 4cbe 83cf 5b3c c997 4a3e
000003d0: d576 25be 1139 8d3b da30 aabd 133d 7abc
000003e0: adbf 1dbe d621 ad3d b884 da3c e1cb d2bd
000003f0: 047a 5e3d c986 443e 7939 34bd 5eec 12be
0.007819421 -0.12686867 0.075946525 -0.02722357 0.22931506 -0.20344529 -0.2641861 -0.19901769
0.122195594 -0.36943758 -0.043049507 0.15964317 -0.015374178 0.22599095 -0.120943636 -0.0017864853
0.058936402 -0.11613908 -0.030758576 -0.08093672 0.3063778 0.12254187 0.21446566 -0.13012925
-0.008182499 -0.19826183 -0.19737032 0.16336633 0.06312784 0.107884854 0.047013085 0.25564444
0.08128057 0.27702722 0.14029197 0.0590737 -0.070626624 0.0627617 -0.00330917 0.13548112
0.14019883 0.0045492225 -0.09969474 0.058154173 -0.23851568 -0.07079849 0.125354 0.17376655
0.025938042 0.18421163 -0.41385913 0.0061218436 0.011177799 -0.002750437 0.0995183 0.19409496
0.1529288 -0.2437819 -0.018800635 -0.17516355 -0.18280403 0.18395475 -0.09442088 -0.35471588
0.16820033 0.08183249 -0.18070029 0.0043851426 0.118629634 0.28434652 -0.30959773 0.20203467
-0.11670746 -0.08270918 -0.10682823 0.13107717 0.07426419 -0.115906104 -0.46196613 -0.07964542
0.0029089306 0.1694528 0.08927686 0.12821473 -0.03647356 -0.11235357 0.28163573 -0.13048267
-0.32644367 -0.059433952 -0.02194605 -0.13101733 -0.02661898 0.21145828 -0.07191714 -0.17992523
-0.21262069 -0.22934309 0.52393866 0.20303039 -0.02494192 0.07710106 0.4550734 0.036967628
0.24576643 0.051207963 -0.07143409 0.17500587 0.30946 0.06478925 -0.06472276 0.23655607
0.2899823 -0.08452715 -0.27007133 -0.014743899 0.058044914 -0.32985425 -0.07584799 -0.28209049
0.007466187 -0.1549364 -0.020161781 -0.064139515 0.11481025 0.1118284 0.26584175 0.027663378
0.095254354 0.2509493 -0.043039896 -0.0542658 0.17243202 -0.08902572 0.3164189 -0.09150403
-0.072731294 -0.035646345 -0.13667235 -0.16694833 0.0081422 0.21512763 0.0053650676 -0.11521202
-0.09757417 0.30847663 0.22732417 0.12334227 0.10970182 -0.010193126 -0.07723138 0.08946193
0.08095824 -0.014923514 0.16455987 0.15797082 -0.022237552 -0.015681386 0.10714892 -0.27478904
-0.15792923 0.016811576 -0.079194084 0.36125457 -0.11892871 -0.10301402 0.042634692 0.34476689
-0.051769406 0.22838888 -0.23909037 0.09855561 0.15470257 0.06171478 0.1648224 0.13347921
0.07247491 0.21490358 -0.031610638 0.120933995 0.10340562 -0.19997884 0.24801005 -0.08012562
0.07116938 0.20115842 0.2089677 0.04022905 0.22983216 0.07097546 0.12064589 0.51717585
-0.24722806 -0.13689055 -0.26647457 -0.25807542 -0.04102456 -0.05668402 0.14686246 0.030589603
-0.18401952 -0.36992675 0.024839886 0.1294466 0.17413694 0.3341616 0.014220835 0.012919734
0.12917244 -0.070761204 -0.373004 -0.05339314 0.08026732 0.28599906 -0.2682315 0.27315733
0.059138704 0.039475106 -0.16023481 0.028742786 -0.06018193 0.116894685 -0.15493308 -0.37422907
0.0004081071 0.17606246 -0.04316419 -0.050512254 -0.026657911 -0.1373667 -0.32104805 -0.2625208
0.02520735 -0.020182746 0.021259908 -0.07228805 -0.15038054 -0.09339028 0.15115523 0.26300228
-0.10766399 -0.20016044 0.013416174 0.19784464 -0.16158612 0.0043097814 -0.08310099 -0.01527335
-0.1540515 0.08453719 0.026674613 -0.10292793 0.054315582 0.19192041 -0.044000123 -0.1434798

network.actor.0.bias f4 [64]
00000000: 0000 0000 0000 0000 0000 0000 0000 0000
00000010: 0000 0000 0000 0000 0000 0000 0000 0000
00000020: 0000 0000 0000 0000 0000 0000 0000 0000
00000030: 0000 0000 0000 0000 0000 0000 0000 0000
00000040: 0000 0000 0000 0000 0000 0000 0000 0000
00000050: 0000 0000 0000 0000 0000 0000 0000 0000
00000060: 0000 0000 0000 0000 0000 0000 0000 0000
00000070: 0000 0000 0000 0000 0000 0000 0000 0000
00000080: 0000 0000 0000 0000 0000 0000 0000 0000
00000090: 0000 0000 0000 0000 0000 0000 0000 0000
000000a0: 0000 0000 0000 0000 0000 0000 0000 0000
000000b0: 0000 0000 0000 0000 0000 0000 0000 0000
000000c0: 0000 0000 0000 0000 0000 0000 0000 0000
000000d0: 0000 0000 0000 0000 0000 0000 0000 0000
000000e0: 0000 0000 0000 0000 0000 0000 0000 0000
000000f0: 0000 0000 0000 0000 0000 0000 0000 0000
0.0 0.0 0.0 0.0 0.0 0.0 0.0 0.0
0.0 0.0 0.0 0.0 0.0 0.0 0.0 0.0
0.0 0.0 0.0 0.0 0.0 0.0 0.0 0.0
0.0 0.0 0.0 0.0 0.0 0.0 0.0 0.0
0.0 0.0 0.0 0.0 0.0 0.0 0.0 0.0
0.0 0.0 0.0 0.0 0.0 0.0 0.0 0.0
0.0 0.0 0.0 0.0 0.0 0.0 0.0 0.0
0.0 0.0 0.0 0.0 0.0 0.0 0.0 0.0

network.actor.2.weight f4 [64, 64]
00000000: b870 a43e 8f57 5c3e 0664 d03d 7d54 b43e
00000010: f721 94be 506c b53d 21ae 57be f77b 133e
00000020: ec2d 5a3d 0bc0 683e c3c1 8c3e d706 b5bd
00000030: 273b 2f3d cf71 9abb cc62 49be ad02 c53c
00000040: af72 f8bd bda8 c3bd 22d1 2cbe 8fb4 34bd
00000050: f3b1 0dbe 04a5 cc3d be7a 343e 7ec2 5cbe
00000060: 4bcf cebd c849 c73e e624 553e 951c 08bb
00000070: 76b0 563c da5a dabc 24fb 533d e73f 843d
00000080: c8bd d23d e835 f1bd 2b73 94bd fa7c 3d3d
00000090: deb3 55bd b3b5 113d a42c 7ebd 1474 6e3e
000000a0: 35a5 1c3d 8540 d3bc 8f3d 3c3e 8788 513d
000000b0: f5c2 b1bd 9344 553e 9354 2ebe 7f34 41be
000000c0: 20a8 613e e445 2eba 235e 483e affe 9ebc
000000d0: f285 af3e 9f3f 6c3e d6a5 64be 474c b7be
000000e0: 7343 acbe 6a3f 3cbe 2197 3b3e 8441 04bd
000000f0: f455 93be a2e4 2b3e 0148 16bd 9a0c 2e3e
00000100: 0d77 8b3e 85a1 aabd 57b9 4fbe c715 f6bc
00000110: edec 12be 734a debc 0cd1 933e 0e93 983e
00000120: 6c6c 1f3f 59bf 87bd d964 0abe 4c9a 843d
00000130: 172f 52be d9dc de3d 5569 2d3e 28b7 85be
00000140: 0aae afbe e1f7 a1bd ead6 0c3e 9210 83bd
00000150: f57e 69be 15d2 f9bd a121 8abd 1e56 b1be
00000160: c777 1ebd 6022 3cbd 4443 d6bb 330a 3bbc
00000170: 3908 103e a0f0 44be 2d1f 6cbb 729c 0cbe
00000180: c618 52be 9e98 b53e be47 55be 6cab e73d
00000190: 5b49 383e 7ae2 153e 1785 1bbe b49d 4fbe
000001a0: 0f21 9f3d 4057 17bd 3541 8bbc 6b74 f13d
000001b0: 71ff 8fbd bbde 15bc d4e1 7e3e caae b33d
000001c0: adfa 26be 40f5 14bb 078b 263e 2825 78be
000001d0: 4c12 093e 537f 39be ef7f 943d 93a5 013d
000001e0: 4513 52be ab79 e8bc e296 283e 3617 dabc
000001f0: 52a8 ba3d 812c 8d3d 8800 783d 6381 97bd
00000200: 3e8d 9abd 4bff c8be bdd0 ddbc a27e 9c3d
00000210: 6efc 433b f489 0fbe 1000 233e f820 4a3d
00000220: e2c5 5e3c 191b 4cbe f30f 643d 3457 da3c
00000230: 56c7 df3d 6e79 a93e 968c 7e3e cea8 a1be
00000240: d7a6 9cbe 7e7a 783e b51e fcbd 8f26 debd
00000250: 700d dabd ff3f 65bd 3a01 063e 94ca 983d
00000260: 89da 15be 4747 ae3e c4d7 85be 0d81 423e
00000270: b8df 7b3e a032 0e3e ebc0 62be 086e a33c
00000280: b101 533e fa9b 4bbe fe15 293d afc9 1e3c
00000290: e83e 93be 62e3 d8bd be7a adbc 7d06 573e
000002a0: 5f26 38be 586f 6abe f3e9 d9bd faae e53d
000002b0: 3e0d 17be 4a71 1fbd 1bf9 383d abc5 583d
000002c0: b076 583e b363 653e 0e5b 36bd b34f 8c3b
000002d0: 58da 6b3e 86e5 4e3e 8007 66bc a3e7 613e
000002e0: 6455 973e b582 01be 1161 b13d c226 13be
000002f0: 220f 69bd 7e3e 78be a29a 82be d8d5 f8bd
00000300: 0a91 093e 4bd2 0abd cc5d 323d c47c 233d
00000310: 73f5 38bc 7895 cc3d ef3f 503e 2df3 323e
00000320: 636c 383e 967a f83c 484f 57bb d7bc 54be
00000330: 1ed0 b6bd be43 5cbe d4cb d73d ce11 053e
00000340: 9bb1 12bc f0a5 163e a1ee 0fbe bcc1 b33c
00000350: a79a 64be 72da 433e c34d 8fbd 7945 0cbe
00000360: 13fe 56be 2260 b53d 17d6 d43d f03c c63d
00000370: baef 2b3e fa90 323e d8ad 94be 1725 9e3d
00000380: 9722 4f3b da1a e9be e333 593e e38e 4b3e
00000390: 9811 2dbe fefa 933e 390f 8a3d 015b 14bd
000003a0: 32e7 4bbd 2abb 123d 0897 a73e 9fa6 0dbe
000003b0: 2b7c 2f3e 76b3 45bd 082b 343e 2ece 873e
000003c0: ca17 0ebe f8b5 3b3e 308d 3ebd b023 b5bc
000003d0: 9af8 e9be 906c 61bd 6338 903d 1bd0 b5be
000003e0: b853 e0ba 9334 ab3e f2b5 eebd d339 a53e
000003f0: adc7 54bd 4b93 70be d254 2ebd 0f4b 623d
0.32117248 0.21517776 0.10175328 0.3522071 -0.28932163 0.088585496 -0.21062519 0.14402758
0.05326645 0.22729509 0.27491578 -0.08839195 0.04278102 -0.004713274 -0.19666594 0.024049127
-0.12131249 -0.09553669 -0.16876653 -0.044117507 -0.13837413 0.09992412 0.17624947 -0.21558568
-0.10098132 0.38923478 0.20814857 -0.002076899 0.013103595 -0.02665465 0.05175318 0.06457501
0.10290104 -0.1177786 -0.07248529 0.046261765 -0.052173488 0.035573673 -0.06205429 0.23286468
0.03824349 -0.025787601 0.18382858 0.051155593 -0.08679763 0.2082694 -0.1702445 -0.18867682
0.22036791 -0.0006647988 0.1956716 -0.019408552 0.3428188 0.23071145 -0.22328886 -0.35800382
-0.3364521 -0.18383566 0.1831937 -0.032289043 -0.28776515 0.16786435 -0.036689762 0.16996995
0.27239266 -0.08331589 -0.20285545 -0.030039681 -0.14348193 -0.02713511 0.28870428 0.29799694
0.62274814 -0.066282935 -0.13515033 0.06474742 -0.20525776 0.10881967 0.16934712 -0.261163
-0.3431247 -0.07908607 0.13753858 -0.06399645 -0.22802337 -0.12198273 -0.067446955 -0.34636015
-0.038688447 -0.04593122 -0.0065387804 -0.011416006 0.14065637 -0.19232416 -0.0036029324 -0.13731554
-0.20517263 0.35468 -0.20828149 0.11311993 0.17996733 0.14637175 -0.15187488 -0.20275003
0.07769977 -0.036948442 -0.016998867 0.11789783 -0.070311435 -0.009147341 0.24890834 0.08773573
-0.16306563 -0.0022729188 0.16263972 -0.24232924 0.13385886 -0.18114977 0.07250964 0.031652045
-0.20515163 -0.028378328 0.16463807 -0.026622396 0.09114136 0.06893254 0.06054738 -0.073977254
-0.07546471 -0.39257273 -0.027077073 0.07641341 0.0029905098 -0.14017469 0.15917993 0.049347848
0.013596984 -0.19932212 0.055679273 0.02665291 0.10926692 0.33100456 0.24858317 -0.315741
-0.3059604 0.24265477 -0.123105444 -0.10847198 -0.10647094 -0.055969235 0.13086405 0.07460514
-0.14634146 0.34038755 -0.2614118 0.18994541 0.2459706 0.138865 -0.22143905 0.019949928
0.20606114 -0.19883719 0.04128074 0.00969164 -0.2875893 -0.10590245 -0.021176692 0.20998569
-0.17983387 -0.22894037 -0.106403254 0.11215015 -0.14751145 -0.0389264 0.04515944 0.052922886
0.21139026 0.22401313 -0.04452043 0.004281962 0.2303251 0.20204744 -0.014039874 0.22061019
0.29557335 -0.12647517 0.08661092 -0.14370254 -0.056899197 -0.24242589 -0.255086 -0.121501625
0.13434234 -0.033891957 0.043546483 0.039913908 -0.011288988 0.099894464 0.20336889 0.17475577
0.18010096 0.030331891 -0.0032853652 -0.20775162 -0.08926414 -0.21510217 0.10536924 0.12995073
-0.008953477 0.14711738 -0.14055873 0.021942966 -0.2232462 0.19126299 -0.06997254 -0.13698377
-0.20995359 0.088562265 0.10392397 0.09679592 0.16790667 0.17438117 -0.29038882 0.07721918
0.003160631 -0.455283 0.212112 0.19878726 -0.16901243 0.2890243 0.06741185 -0.0362196
-0.049781032 0.035823025 0.32732415 -0.13833092 0.1713721 -0.04826685 0.1759454 0.2652449
-0.13876262 0.18331134 -0.046521366 -0.022111744 -0.4569748 -0.055035174 0.07042005 -0.35510334
-0.0017114794 0.33438548 -0.11655797 0.3227068 -0.05194824 -0.23493688 -0.04256136 0.055247363

network.actor.2.bias f4 [64]
00000000: 0000 0000 0000 0000 0000 0000 0000 0000
00000010: 0000 0000 0000 0000 0000 0000 0000 0000
00000020: 0000 0000 0000 0000 0000 0000 0000 0000
00000030: 0000 0000 0000 0000 0000 0000 0000 0000
00000040: 0000 0000 0000 0000 0000 0000 0000 0000
00000050: 0000 0000 0000 0000 0000 0000 0000 0000
00000060: 0000 0000 0000 0000 0000 0000 0000 0000
00000070: 0000 0000 0000 0000 0000 0000 0000 0000
00000080: 0000 0000 0000 0000 0000 0000 0000 0000
00000090: 0000 0000 0000 0000 0000 0000 0000 0000
000000a0: 0000 0000 0000 0000 0000 0000 0000 0000
000000b0: 0000 0000 0000 0000 0000 0000 0000 0000
000000c0: 0000 0000 0000 0000 0000 0000 0000 0000
000000d0: 0000 0000 0000 0000 0000 0000 0000 0000
000000e0: 0000 0000 0000 0000 0000 0000 0000 0000
000000f0: 0000 0000 0000 0000 0000 0000 0000 0000
0.0 0.0 0.0 0.0 0.0 0.0 0.0 0.0
0.0 0.0 0.0 0.0 0.0 0.0 0.0 0.0
0.0 0.0 0.0 0.0 0.0 0.0 0.0 0.0
0.0 0.0 0.0 0.0 0.0 0.0 0.0 0.0
0.0 0.0 0.0 0.0 0.0 0.0 0.0 0.0
0.0 0.0 0.0 0.0 0.0 0.0 0.0 0.0
0.0 0.0 0.0 0.0 0.0 0.0 0.0 0.0
0.0 0.0 0.0 0.0 0.0 0.0 0.0 0.0

network.actor.4.weight f4 [2, 64]
00000000: 1ee5 6838 3695 23bb 2199 ca3a 9762 0c3b
00000010: 7295 623a a1dc 863a 61c7 f5b8 cbf6 2abb
00000020: 5b44 ecba 95a0 16ba e5b5 e8ba 1288 9439
00000030: 4b46 1db9 5251 fb39 b29b cf39 199a 533a
00000040: 006a eab9 e77b 353b 65d1 85ba 068a 2939
00000050: dbe7 253a e233 023b 6bd3 073b aa49 2a3a
00000060: 02b7 8339 b189 0f3b fb35 3b39 f307 dcba
00000070: 5b32 12ba cfab c3ba d0b9 2b39 3315 d9b6
00000080: 95de 7839 d3d1 7a3a 5e52 283b 187c 9f39
00000090: 84e4 c5ba 64aa 0cbb c4da bf38 6d29 bd3a
000000a0: 94f0 193b 248f 3b3b 428b ce37 c293 cf39
000000b0: c249 913a 7f0e 0fb8 a4b5 1eba 39a9 0e3a
000000c0: 09c0 a139 359c 49b9 8f96 7eb9 4590 4fba
000000d0: a73f 153a f200 4f39 b0bf 88b8 8af7 f1b8
000000e0: 22c7 41ba 0484 e23a ce03 5539 64fa 3e3a
000000f0: 29c3 90ba 5dc2 b6ba 816b 8b3a d670 0839
00000100: 4b72 7139 2534 1ebb cafa d93a 17ac 29bb
00000110: 0393 0fba cbd2 f8ba fdb9 c33a ee4f 883a
00000120: 3a9d 9fba 1744 26ba 24da 82b6 6bfb 7aba
00000130: e22e 12ba 5289 c03a 3092 85ba 4253 913a
00000140: eb34 a83a f25a b639 7663 9939 5235 ac3a
00000150: 15e2 143a c7e8 97b9 ff5b 123b 19d3 04ba
00000160: 3b29 91ba 9e24 04bb 4dd1 32ba 924a b2b8
00000170: c1c1 a4b9 82da 42bb 6b1f 8a39 7736 a2b7
00000180: 5a67 14ba aca7 6239 4930 84b9 cb85 303a
00000190: 955d d63a eedf a03a 35b9 883a 33c1 c6ba
000001a0: b99a 41b7 27d4 82ba 0b87 623a cf8b 5bbb
000001b0: 49fe 1a3a e924 c2b9 6f1a 6b39 ff8e 8a39
000001c0: 35cc f239 47b5 18b9 264b 47ba 3e3d cc3a
000001d0: 4051 753a cade b73a 4066 0cbb afd4 1d3b
000001e0: 1781 1aba f466 c13a b438 51ba d45d d1b9
000001f0: 1195 8bb9 3db4 13ba f5c0 f83a 0232 96b9
5.5526492e-05 -0.0024960763 0.0015457013 0.0021421069 0.0008643485 0.0010289141 -0.000117196476 -0.0026087041
-0.0018025743 -0.00057459745 -0.0017754404 0.0002833014 -0.00014998873 0.0004793504 0.0003959812 0.00080719736
-0.00044710934 0.002769226 -0.0010209499 0.00016168514 0.00063287996 0.001986735 0.002072538 0.0006495962
0.00025122619 0.0021902139 0.00017853819 -0.0016787037 -0.00055769616 -0.0014928522 0.00016377051 -6.469572e-06
0.00023734041 0.00095680094 0.002568386 0.000304193 -0.001509801 -0.0021463865 9.148338e-05 0.0014431902
0.0023489343 0.0028619254 2.462196e-05 0.00039592205 0.0011084604 -3.4107357e-05 -0.0006054288 0.0005442086
0.0003085139 -0.00019227045 -0.00024279415 -0.0007917921 0.0005693384 0.0001974141 -6.52069e-05 -0.00011537883
-0.0007392039 0.0017281775 0.0002031468 0.0007285236 -0.001104449 -0.0013943423 0.0010636897 0.00013012005
0.00023026128 -0.0024139967 0.0016630527 -0.0025889927 -0.00054769235 -0.001898372 0.0014932748 0.0010399797
-0.0012177594 -0.00063425436 -3.899697e-06 -0.00095742074 -0.0005576444 0.0014689362 -0.0010190662 0.0011087435
0.0012833154 0.00034781505 0.00029256538 0.0013138449 0.0005679441 -0.00028974397 0.0022332666 -0.00050668564
-0.001107491 -0.0020163427 -0.00068213494 -8.501591e-05 -0.00031424875 -0.0029732292 0.0002634482 -1.9337267e-05
-0.00056611525 0.00021615502 -0.00025212977 0.0006733804 0.0016354794 0.0012273767 0.0010431173 -0.0015163779
-1.1539721e-05 -0.0009981439 0.0008641339 -0.003350008 0.0005912525 -0.00037030064 0.00022421194 0.00026427952
0.00046309983 -0.0001456338 -0.00076024455 0.0015582216 0.00093581155 0.0014028188 -0.002142325 0.0024083068
-0.00058938697 0.0014755414 -0.0007981167 -0.00039933494 -0.0002662321 -0.00056344626 0.0018978404 -0.00028647488

network.actor.4.bias f4 [2]
00000000: 0000 0000 0000 0000
0.0 0.0
