open_spiel/python/examples/sac_trained_models/SACSAC_discrete0.pth (torch, 286370 bytes, 6 tensors)

fc1.weight f4 [256, 17]
000000 3c 30 fe 3d 00 3d db bd 47 96 40 bd f0 65 c4 3d
       0.12411544 -0.10704994 -0.047018316 0.095897555
000010 19 9f 74 be d3 36 15 3e fd 41 6a bc d8 57 0f 3e
       -0.23888816 0.14571695 -0.014297959 0.13998353
000020 63 1a 0a 3d ea 13 8e bd 95 cd bc 3d 14 74 b7 3c
       0.03371657 -0.06937392 0.09218899 0.022394218
000030 f2 62 d9 3d cd 91 c1 bd e1 db 90 bc f8 de b2 bc
       0.106145754 -0.094516374 -0.017682971 -0.021834835
000040 b7 fd 0f 3d 5f a6 d0 bb df 1a 59 3e 7a 92 9a 3d
       0.03515407 -0.006367489 0.21201657 0.075474694
000050 b3 9f b9 bd d5 7a 3d be 0f 15 49 bd a2 e7 a2 bd
       -0.09063663 -0.18503888 -0.04909235 -0.07954337
000060 35 3a aa bd 6e 44 3e 3c 22 3e f9 3d af d5 14 3e
       -0.08311883 0.011612995 0.12170054 0.14534639
000070 f5 c7 72 be e1 6e 14 3e 7f c3 8a 3d 74 94 6b 3e
       -0.2370909 0.14495422 0.06775569 0.23005849
000080 1d ee 23 3e 75 49 62 be 9c 98 61 be a3 94 ef bd
       0.16008802 -0.22098334 -0.22030872 -0.11698272
000090 b1 15 5a 3e 55 79 25 bd 48 38 f8 3d 04 d4 e6 bd
       0.21297337 -0.040398914 0.1212011 -0.112709075
0000a0 92 df 79 3e de 2d 2f bd a9 3f 3a 3e 8d 38 3c 3b
       0.24401692 -0.04276835 0.18188347 0.002872023
0000b0 bd 1b 8b bd 77 f1 3c 3e 26 d5 03 be eb 15 92 3d
       -0.067924 0.18451487 -0.12874278 0.07133087
0000c0 f0 6d 8f bd ca d3 d9 bc 58 c4 6e be 01 e6 fc bd
       -0.07003391 -0.026590247 -0.23317087 -0.12348557
0000d0 45 c4 06 3e b1 7a 71 bd b7 f5 76 3e 8b af 4e 3e
       0.13160808 -0.0589549 0.2411717 0.20184152
0000e0 f4 d2 1f bc 6a b5 9c be be 18 0f 3e 8c 28 9a 3d
       -0.009754885 -0.30607158 0.13974282 0.07527265
0000f0 41 97 48 be 4e ad 26 3e cb 46 1c 3e e6 d6 4e 3e
       -0.19588949 0.16277048 0.1526138 0.20199165
000100 f7 37 0b be 1a 86 23 bd c4 f4 99 bb e8 18 11 3d
       -0.13595568 -0.03992281 -0.004698368 0.035424143
000110 76 7b 3c be 44 3d 30 be 68 1b 07 3e 4c f3 68 bd
       -0.18406472 -0.17210871 0.13194048 -0.05687265
000120 8e a1 f2 3d 64 8a 62 3c d7 17 a3 3d 70 71 5a 3d
       0.1184722 0.01382694 0.079635315 0.05333084
000130 c3 9a b4 3d d7 39 f6 3d 84 01 66 be 6c 05 fa 3d
       0.08818581 0.12022751 -0.22461516 0.122080654
000140 0d a0 2e be 1f 63 3b be 88 a8 71 3c 72 49 29 bd
       -0.17053242 -0.1829953 0.014749654 -0.04132981
000150 a0 dd 11 3e 23 fc 03 be d0 c8 5c be 00 bf 34 3e
       0.142447 -0.12889151 -0.21560979 0.17650986
000160 b9 d8 57 bc 11 94 17 3e f2 10 a4 3d 84 3c 3a be
       -0.013174229 0.14802577 0.080110446 -0.18187147
000170 84 46 8d 3d 15 9e 6e 3d 70 30 3a be 06 6b b2 bd
       0.068982154 0.058256228 -0.1818254 -0.08711819
000180 f2 1f 9e 3d 0a 04 a8 3d c0 49 d3 bd e7 5c 96 bd
       0.07720937 0.082038954 -0.10316801 -0.073419385
000190 25 77 63 3e 10 ce 37 bd ce 6c 0b 3e 0b 14 d7 3d
       0.22213419 -0.04487425 0.13615724 0.1050187
0001a0 16 8a 20 be 64 1d 62 be 8c 8f 66 3e de d7 1b 3c
       -0.15677676 -0.22081524 0.22515696 0.009511916
0001b0 14 ac 36 3e 05 33 5b 3d 12 c1 9f 3d 5f 11 38 3e
       0.1783908 0.053515453 0.07800497 0.17975377
0001c0 67 c0 70 3e 93 6a 26 be 14 49 0f 3d 7c 56 39 3e
       0.23510896 -0.16251592 0.034981802 0.18099397
0001d0 0c eb 33 3e e1 49 1a 3e 82 bd 33 be 6b d4 23 be
       0.17570132 0.15067245 -0.1755276 -0.15999
0001e0 ee 32 16 be dc 9a f9 3c ab 07 8b 3e 77 e1 1c be
       -0.14667866 0.03046935 0.27154288 -0.15320383
0001f0 96 4e 08 3e 5d 76 09 be b9 3f 5c be 75 24 53 bd
       0.13311228 -0.13424058 -0.21508683 -0.05154844
000200 7b 26 01 3e 1a 7e 7b 3e 86 ff 05 be 4b 46 77 3d
       0.12612335 0.24559823 -0.13085756 0.06036977
000210 03 4c 56 3e 06 93 24 3e 0f c8 1a 3e 7e 7d 30 3e
       0.20927434 0.1607171 0.15115379 0.17235371
000220 b4 36 1e 3e 95 4c 80 3d c7 d4 29 be 61 e3 63 be
       0.15450555 0.06264607 -0.16585074 -0.22254707
000230 e1 1b 07 be 56 ac f8 bc 6b 47 c0 bd 19 0a be 3d
       -0.13194229 -0.030355614 -0.09388622 0.0927927
000240 03 ba 99 3d 73 6d 8f bd 69 e7 dc 3d 5f 10 a9 3d
       0.07506182 -0.07003298 0.107863255 0.08255076
000250 fa ff 1c 3e 0d 41 27 3e 94 36 a8 bd 90 a6 72 3e
       0.15332022 0.16333409 -0.08213535 0.23696351
000260 09 b2 e5 bc 98 2f 93 3b 32 6b 6a be a4 d8 1f be
       -0.028038995 0.0044917576 -0.22892454 -0.15609986
000270 39 17 11 be 9d 74 d4 bd aa b4 3d 3e fe 50 a2 bd
       -0.14169015 -0.10373805 0.18525949 -0.07925604
000280 28 a2 2b be 3a 1c bf 3d 34 a8 c5 3d 19 52 28 3e
       -0.16761076 0.09331556 0.09651223 0.16437568
000290 91 6a 19 be ff 81 8e 3d 23 d4 b4 bd 9a 32 5f bd
       -0.14982058 0.069583885 -0.08829524 -0.054491617
0002a0 7b eb 45 be e3 61 e2 bd ae cb 86 bd 79 69 d4 3d
       -0.1932811 -0.11053827 -0.065818176 0.1037168
0002b0 08 7d 35 3d c7 7b 65 3d 68 6a 71 3e d5 d1 76 3e
       0.044308692 0.056026246 0.23575747 0.24103482
0002c0 79 7c 32 3e c7 f6 8d 3c 96 cf 2b be 50 b8 5f 3e
       0.17430295 0.017329587 -0.16778407 0.21847653
0002d0 fe 7c bf bd 62 df 56 bd f5 54 38 be e3 3a 44 bd
       -0.09350012 -0.05245913 -0.18001159 -0.04790772
0002e0 d9 2f 20 be 5c 37 64 3e 9b b5 56 be dc 2c 12 be
       -0.15643252 0.22286743 -0.20967714 -0.14274925
0002f0 a7 ee 06 bc 4a 4a 06 be 71 b2 9c 3d a9 bb 81 bd
       -0.00823561 -0.13114277 0.076512225 -0.063346215
000300 16 47 98 bd 70 1a e1 3d f8 32 63 3e 29 b3 2e be
       -0.074354336 0.10991371 0.22187412 -0.17060532
000310 a2 0f 83 3d 1a b8 5c 3e 73 e5 86 3e f9 87 01 be
       0.06399466 0.21554604 0.2634693 -0.12649526
000320 03 99 70 3d 36 a4 37 be ce 08 54 3e 97 ad c0 bd
       0.058739673 -0.17933735 0.20706484 -0.0940811
000330 b2 89 19 3e 17 9b ec 3b c4 bd 9a bc 38 0c c1 bc
       0.14993933 0.0072206366 -0.018889315 -0.023565397
000340 97 c8 cf 3c 80 ba f5 3d 0f 22 86 3d 0b 84 ad 3d
       0.025364203 0.11998463 0.06549465 0.08472451
000350 1d 67 5f be 36 1a 1c 3e ed 80 6b 3e ce c0 45 3e
       -0.21816678 0.15244374 0.229984 0.1931183
000360 e5 48 52 3e ca 38 33 be a9 21 b8 bd 71 fb 5a 3e
       0.2053562 -0.17502132 -0.08990795 0.2138498
000370 af 29 3d be 8e 58 62 3e d6 54 43 be c5 f1 2e be
       -0.18472932 0.22104093 -0.19075331 -0.17084415
000380 9b 47 c4 3d fc 6a 44 be fe 11 80 bd 05 03 59 3e
       0.0958397 -0.19181436 -0.06253432 0.21192558
000390 59 e1 4d 3e 72 e2 6a 3e c0 c9 85 bd 87 2e 26 be
       0.20105495 0.22937945 -0.065326214 -0.16228686
0003a0 8f a4 85 3e e4 ef 3d bd 7b 5d cc bd d5 2b 72 3d
       0.2610211 -0.046371356 -0.099787675 0.059123833
0003b0 88 ae 2d be 63 3d 23 3e fc cf 29 3e f3 10 45 be
       -0.1696111 0.15941386 0.16583246 -0.19244747
0003c0 3f fe 4b be 38 67 f1 39 bd 76 e0 3d 50 0e bb 39
       -0.19921206 0.00046044006 0.109601475 0.00035678083
0003d0 a4 5b 45 be 00 8e 9c 3c 32 70 69 be c6 54 4b be
       -0.1927324 0.01911068 -0.22796705 -0.19856557
0003e0 8b f9 10 be f6 89 49 3e 93 12 6d 3e 84 b7 a8 bd
       -0.14157693 0.19681534 0.23151617 -0.08238128
0003f0 d5 38 32 3c e4 85 dd 3d 33 0f ee 3c f4 ba f8 bd
       0.010877808 0.10816553 0.029059982 -0.121450335

fc1.bias f4 [256]
000000 e3 5d 0b 3e 99 c5 43 bc 73 4d b3 3d ab dc 9a bd
       0.13610034 -0.011948966 0.08755007 -0.0756162
000010 cb 17 2e be 69 e1 30 3e ee 7d 29 bd 46 ec 48 3e
       -0.17001264 0.17273487 -0.04137986 0.19621381
000020 6a b2 85 bd c1 ca 1d bd d2 cf 3f bd 38 66 be bd
       -0.065281704 -0.03852344 -0.046829052 -0.092968404
000030 53 f1 51 3d 2b 6c 7e 3d 02 9f aa bd 2a 1d 18 be
       0.051255535 0.062114876 -0.083311096 -0.14854875
000040 e0 b2 42 3e 63 0e 10 bc ae 4b 9f 3d 0e 3a 05 be
       0.19013548 -0.008792493 0.07778107 -0.13010427
000050 fe 14 33 3e 7a b3 49 3e 90 4c 8e 3d 3b 6b 5c 3e
       0.17488477 0.19697371 0.06948197 0.2152528
000060 30 7e 13 3e 3d ad 4c 3e d8 1f 02 be c1 07 b4 bd
       0.14403605 0.1998796 -0.1270746 -0.087905414
000070 10 18 20 bd c9 c5 fa bd 34 62 05 3e a4 75 fa bd
       -0.039085448 -0.12244756 0.13025743 -0.122294694
000080 5e 9c ce 3d 80 0d 35 3e a5 fc 40 bd 04 52 6b 3e
       0.100884184 0.17680931 -0.04711594 0.22980505
000090 fa d5 c0 bd 19 39 f4 3d 06 a5 27 3e f0 aa c4 bd
       -0.09415813 0.11924953 0.16371545 -0.09602916
0000a0 e8 ff 91 3b 15 f2 47 3e 7c 77 38 be b2 15 fc bd
       0.004455555 0.1952594 -0.1801433 -0.123088256
0000b0 55 13 72 be 8c 98 2d 3e f4 d8 3b 3e 59 2e 43 3d
       -0.23640187 0.16952723 0.1834448 0.047651622
0000c0 06 a7 3f 3d a1 42 6f be a6 fe e0 3d 98 1d ef bd
       0.046790145 -0.2336526 0.1098607 -0.116755664
0000d0 ed ae 16 3e 77 27 0a be 1f 89 1b be 95 1c 30 3e
       0.14715166 -0.13491617 -0.15189026 0.17198403
0000e0 87 1e 97 3d 4a 3f 88 bd a0 7c 20 be 79 a6 41 be
       0.073788695 -0.066526964 -0.1567254 -0.1891116
0000f0 2a 88 34 3e 04 14 a3 bd f0 ab 80 3d 9f 39 10 3e
       0.17630067 -0.07962802 0.062827945 0.1408448
000100 2e 62 8c bc 47 1a d1 bd 2e 59 f1 bd 65 3b 05 3d
       -0.01713666 -0.1021009 -0.11784588 0.032527346
000110 ad ad ae bc d6 75 de 3c 9b 39 84 3d 3a 0e 41 be
       -0.02132305 0.027155798 0.064563 -0.18853083
000120 da 7d fc 3d 50 f4 29 bd 89 9a 39 be db e2 a1 bd
       0.12328692 -0.04149276 -0.18125357 -0.07904597
000130 9a 08 90 3b 20 1e 5e 3e ee ab 6c 3e b1 30 71 bd
       0.0043955566 0.2169118 0.23112461 -0.058884326
000140 66 e6 23 be dd 83 46 3e 51 39 49 3e 53 ed 11 3e
       -0.16005859 0.1938624 0.1965077 0.14250688
000150 ad 4c 3b be b5 67 0f 3d ae 83 53 3d 66 f8 86 3d
       -0.18290968 0.035011012 0.05163925 0.06590347
000160 85 3d 2b be 22 a6 d2 3c f5 b0 ca bd d1 9c 18 3e
       -0.16722687 0.025713984 -0.09897033 0.1490357
000170 65 4e 23 be 5b 71 59 3e 99 10 9b 3d 28 c7 6f 3d
       -0.15947874 0.21234648 0.07571525 0.05853954
000180 ac 3d d2 bd c0 35 58 bc 91 10 8c 3d 3b 74 3f be
       -0.10265669 -0.013196409 0.06839097 -0.18696682
000190 37 04 82 3d 29 aa 1a 3e fc 07 e1 3d ec 4d 61 3e
       0.0634846 0.15103973 0.10987851 0.22002381
0001a0 fc 2d ef bd 64 3c 77 be 8e 0d b4 bd 74 8b 0b be
       -0.11678693 -0.24144131 -0.08791648 -0.13627416
0001b0 b4 41 0b 3e 2d 8c ae 3d 9a 74 4c be 9b 44 2f be
       0.13599283 0.0852283 -0.19966355 -0.17116015
0001c0 ea 85 5f be fd af a2 3d f1 8c 71 3d e6 19 ac 3c
       -0.21828428 0.07943723 0.058972303 0.021008443
0001d0 82 1e 84 bd 7a a8 57 3e 79 a3 43 3e 9f 64 46 be
       -0.064511314 0.21060362 0.19105329 -0.19374321
0001e0 a2 ad 1c be 5f ab 70 3d ab 6e 20 be 35 01 22 3d
       -0.1530061 0.058757182 -0.15667216 0.039551932
0001f0 fd 3d 65 3d 8e be 35 be ff 20 2e 3e 2b 35 22 be
       0.05596732 -0.17748472 0.17004775 -0.15840594
000200 c2 85 e9 bd 78 09 14 bd 80 a1 d5 bd 78 1f 4e 3c
       -0.114024654 -0.036141843 -0.10431194 0.012580745
000210 e7 38 01 be 77 5c 23 3e 90 c2 6a be d7 8c 7a bd
       -0.12619363 0.15953241 -0.22925782 -0.06116947
000220 52 21 b9 3d 0d 97 97 3d f6 9f f6 3d 44 88 68 bd
       0.090395585 0.074018575 0.12042229 -0.056770578
000230 c7 74 49 3d 19 ea 3c be e0 3f a5 bd 79 a5 82 3c
       0.049183633 -0.18448676 -0.08068824 0.015948044
000240 b2 d6 5f be 77 54 00 be c2 c0 9a 3d 5c b7 59 be
       -0.21859244 -0.12532221 0.07556297 -0.21261352
000250 dd b4 47 3e 57 a9 d1 bd 51 95 ba bd 18 88 14 3e
       0.19502588 -0.10237377 -0.09110511 0.1450504
000260 34 31 1e bd bc a6 80 3d 7d 78 5b 3e 10 15 5e 3e
       -0.038621143 0.06281802 0.21432681 0.21687722
000270 35 a8 4a 3e d2 19 60 be 90 81 67 3e 2b 63 b1 3d
       0.19790728 -0.2188485 0.22608018 0.08661493
000280 77 e5 9a 3d 60 d4 89 bd ed 40 11 be ad 7a 33 be
       0.07563298 -0.067299604 -0.14184923 -0.17527266
000290 69 57 a9 3c 94 d3 3c be 7f 90 6d be db 8c 32 3e
       0.020671563 -0.18440086 -0.23199652 0.17436545
0002a0 ce 67 99 bd 4c 29 53 be 29 ea 6f be 68 53 79 3d
       -0.07490502 -0.20621222 -0.23429169 0.060870558
0002b0 99 15 17 be a7 a1 95 bd 65 7d 14 be bd 19 e9 bd
       -0.14754333 -0.07306223 -0.14500959 -0.11381862
0002c0 26 fa 0c 3e 2b 2e 74 3e bf db 03 3e 30 c2 8a 3c
       0.13767299 0.23845737 0.12876795 0.016938299
0002d0 03 11 f0 3c 32 70 39 be d6 c0 67 bd 92 e9 0c 3e
       0.029304987 -0.18109205 -0.056580387 0.13760975
0002e0 f0 bc e6 bd f0 43 06 3e 0d 96 0e be 04 bd 5e be
       -0.11266506 0.13111854 -0.13924427 -0.21751791
0002f0 7d f7 c3 3d 45 6b 58 3e 69 fa 68 3e 54 61 27 be
       0.09568689 0.2113467 0.22751774 -0.16345721
000300 0b ef 41 be 7e 9d 2c 3e 5a 3f 4e be 5f 67 26 3e
       -0.18938844 0.16856954 -0.20141354 0.1625037
000310 44 2f 75 3e ca 73 92 3b f6 8c 66 3e 91 4c 2e be
       0.23943812 0.0044693695 0.2251471 -0.17021395
000320 69 8d 3f 3e b6 39 46 3e 79 21 73 3e fe 5e aa 3d
       0.18706287 0.19357952 0.23743238 0.083188996
000330 ac 30 2a 3e 74 6f f7 bd b0 f5 49 3d ed 85 ac 3d
       0.1662013 -0.12081805 0.04930657 0.08423982
000340 07 82 1d 3d 21 2e b0 3d 1c da bc 3d 60 48 4f 3e
       0.038454082 0.086025484 0.092212886 0.20242453
000350 1e 6c 45 be 40 f5 a3 3d c3 e6 2c be 1f a2 6e 3d
       -0.19279525 0.08005762 -0.16884904 0.05826008
000360 e0 4b 34 3e 98 3f 1d be 21 83 cf bd 85 72 1a be
       0.17607069 -0.1535629 -0.10132433 -0.15082748
000370 2a 66 58 3e cf 8c 86 bc 9d b2 ba bd 23 3c 10 3c
       0.21132722 -0.016424565 -0.09116099 0.0088034
000380 61 b1 aa 3c cf 4b 00 be b7 c2 79 bd e1 0d eb bd
       0.020836534 -0.12528919 -0.06097671 -0.114772566
000390 89 67 69 3e 52 84 45 3e 7b 99 04 3e ab 04 d2 bc
       0.22793402 0.19288757 0.12949173 -0.025636991
0003a0 02 78 e4 bd 5b 3f 87 3e a7 e6 0c be ea d6 57 be
       -0.11155702 0.26415524 -0.13759862 -0.21078077
0003b0 26 88 0b 3e fc 2f 42 3e 94 94 35 3e 37 2a 81 3d
       0.13626155 0.18963617 0.1773246 0.0630688
0003c0 4f ae 28 bc c4 01 77 be ef 4a 51 bd 4a 5a e9 3d
       -0.010295465 -0.24121767 -0.051096853 0.113941744
0003d0 cd d0 d2 bd bf f5 a5 bd eb b9 0c 3e 8d bc 89 bd
       -0.10293732 -0.08103513 0.13742797 -0.06725416
0003e0 64 2a 16 3d fa 87 66 be 42 9a 35 bd a9 a9 da 3d
       0.03666152 -0.22512808 -0.044336565 0.10676891
0003f0 e5 c4 19 3e ff fc 15 3d 97 67 d6 3d 37 47 46 3e
       0.15016516 0.03661823 0.10468977 0.19363104

fc2.weight f4 [256, 256]
000000 ac 89 16 3d 92 ae 21 3d 05 2e a5 3d 27 fe 44 3b
       0.036752388 0.039473124 0.08065418 0.0030058713
000010 d0 36 3c 3d af ac d8 3c 8f 05 3b bd e0 2e 21 bd
       0.04595071 0.02644953 -0.045659598 -0.039351344
000020 69 9d 4f 3d b9 84 58 3d 3d 9a f9 bc 33 7b a2 3c
       0.050687227 0.05286095 -0.030469054 0.019834137
000030 6b 65 5f 3d e2 1b 3a bd 57 2e 05 bd e6 96 5f 3d
       0.05454008 -0.045436747 -0.032514896 0.054587267
000040 b0 14 f1 bb 37 12 e2 3c dd bd c9 3b 0e cd 1f 3d
       -0.0073572025 0.027596576 0.0061566667 0.039013915
000050 dc 14 4b 3d 18 a4 73 3d 57 ee 4e bd 46 23 99 3c
       0.04958044 0.059482664 -0.050520267 0.018693577
000060 ea 2a 8e 3c ed 67 00 3c ae c5 d4 bc 8c 88 d2 3c
       0.017354447 0.007837278 -0.025973167 0.025699876
000070 58 cc 9b bc cc d3 f9 3c fe 27 11 3d 22 17 21 3d
       -0.019018337 0.0304965 0.03543853 0.0393287
000080 ee 5e 3c bb 5b ab 02 bc d7 ec 37 3d 5d 40 28 3d
       -0.0028743106 -0.007975425 0.044903602 0.041077007
000090 31 d0 05 3d d1 53 6d bd c8 26 f7 3c 1a 05 0c bd
       0.03266925 -0.05794126 0.03016986 -0.034184553
0000a0 ea 6a 08 bd 6c 31 35 bd 34 0f 45 3d 20 98 84 bc
       -0.033305086 -0.044236585 0.048110202 -0.01618582
0000b0 3a 51 86 3d 21 bd 01 3b 18 fa 10 bd 58 05 69 bb
       0.065584615 0.0019796568 -0.035394758 -0.0035556164
0000c0 1d 1d ef 3c 00 d9 70 3c 5e 5e 65 3d 24 7d 3e 3d
       0.029188687 0.014700174 0.0559982 0.046506062
0000d0 d2 ef b6 3c e1 12 04 3d d0 1c 10 bc 0f ef 17 3c
       0.022331152 0.032244567 -0.008795932 0.009273305
0000e0 bc 30 06 bd e4 d5 2a bd 48 2d 0a 3c 19 89 1c 3d
       -0.03276132 -0.04170789 0.008433647 0.038216684
0000f0 e2 6a c5 3b 71 d6 0f 3d 5d b5 57 3d 6a 34 83 3c
       0.0060247043 0.035116617 0.052663196 0.016016204
000100 41 e3 8f 3d 86 4b 5a bd 02 35 12 bd a7 b2 1e 3c
       0.07025767 -0.05329468 -0.035695083 0.009686149
000110 f9 6e e3 3a 96 d1 b3 bc c1 9f 56 bd 7c 44 1e bd
       0.0017351798 -0.021950524 -0.052398447 -0.03863953
000120 c7 dd 3c 3d d6 9a 3a bb 85 96 18 bd b9 c5 93 bd
       0.04610994 -0.0028473637 -0.03725292 -0.07215447
000130 b9 a0 ac bc 33 37 67 bd e0 dd 69 3d c3 d1 af 3d
       -0.021072732 -0.056449126 0.057096362 0.08584931
000140 6f ec b1 bb ae 2c 3d 3d a0 be 36 3c c2 b1 9a bc
       -0.0054297964 0.046185188 0.011153847 -0.01888359
000150 83 79 f4 3c fd 52 f8 bb 08 d1 83 bc ad 60 26 3d
       0.029843098 -0.0075782523 -0.016090885 0.04061954
000160 c0 21 27 bb b8 3b e6 3c 70 16 6c 3d 33 50 6f 3d
       -0.0025502294 0.028104648 0.057638586 0.058426093
000170 00 5c 82 3b ad 1d 5d 3a e1 f6 23 3d 6d 0d c2 bc
       0.0039782524 0.0008434903 0.040030364 -0.023688043
000180 58 80 0e bc 1b b4 b2 3c 6d 7a c0 bc db 7c 5c bc
       -0.008697592 0.021814397 -0.023495877 -0.013457502
000190 53 6d 9d 3d 87 05 e1 3c 63 b4 86 bd 24 53 8f bb
       0.076868676 0.027468456 -0.06577375 -0.004373925
0001a0 c4 fe 59 bd 46 59 06 3d 04 30 c9 3c 70 5f da 3b
       -0.05322148 0.03279998 0.024559028 0.006664209
0001b0 0f 2a 96 3c d4 17 95 bb ae 52 d7 3d 70 5c 2c bc
       0.018330602 -0.0045499597 0.10513817 -0.010520086
0001c0 ae 9f 0d 3d 24 f7 e0 3c a2 78 79 3d 3e a5 09 bc
       0.03457611 0.027461596 0.06090606 -0.008401213
0001d0 09 c2 c8 3b 7c 5c 68 bd 68 3d 12 3d 1d 02 1f 3d
       0.0061266464 -0.056728825 0.035703093 0.038820375
0001e0 48 57 ac 3c 91 0a d8 bc 50 0f 76 bb 93 70 d0 3d
       0.021037713 -0.026372226 -0.0037545748 0.10177722
0001f0 56 3d 10 bd 80 bd 8f 3c 19 ed 20 3d b2 90 0b 3d
       -0.035214745 0.017546415 0.039288614 0.03407354
000200 99 86 da 3c e0 8a 06 bd 80 1d 3f bd ce 58 8b 3c
       0.02667551 -0.032847285 -0.046658993 0.017010119
000210 6e fe 5d 3d cf 17 4f bd 62 fe 6e bd 36 22 69 3d
       0.05419772 -0.050559815 -0.058348067 0.05691739
000220 23 f5 f8 bc e5 de 78 3d c1 ab 1a bd 2f 40 de 3c
       -0.030390328 0.060759444 -0.037761454 0.027130214
000230 52 0a 09 bd 43 03 94 3d 53 7e 79 3d 93 40 e1 3d
       -0.033457108 0.072271846 0.060911488 0.10998645
000240 32 f8 01 bd 00 2a 8e bc 1a 8b 03 bd 10 74 29 bc
       -0.031730838 -0.017354012 -0.03211508 -0.010342613
000250 de df b6 3c 2f 58 8f 3d 06 11 0d bd a7 f1 39 3d
       0.022323545 0.069992416 -0.034440063 0.045396473
000260 7c f4 64 bc 05 61 3b 3c 31 a3 1b bd 2f a6 c4 3c
       -0.013974305 0.0114367055 -0.03799743 0.024005024
000270 1d 85 8b 3c bf ce 26 3d f4 ba 4c 3d 58 55 4e 3d
       0.017031247 0.040724512 0.04998298 0.05037436
000280 6b d2 5a 3d 79 a8 b7 39 fa f1 18 3d 98 ff 3e 3d
       0.053423326 0.00035030002 0.03734014 0.046630472
000290 8d 98 28 3d bc ca 57 3d d7 c1 d2 bb 00 cb 29 3b
       0.04116111 0.052683577 -0.006431799 0.002590835
0002a0 4c 31 be bc bc d0 2a 3d 38 3b 6d bc c4 20 7b bd
       -0.023216866 0.04170297 -0.014479451 -0.061310545
0002b0 a1 0a 02 bd 88 fb 43 bd 93 65 9d 3b 0a 38 39 3d
       -0.031748418 -0.0478473 0.0048033684 0.04521946
0002c0 19 e9 43 ba 53 75 ba bc a9 21 42 bc 03 de 59 bd
       -0.0007473394 -0.022761023 -0.0118488455 -0.053190242
0002d0 37 ce 14 3d 71 bf c0 3c 6d 46 74 bd 02 c8 12 3d
       0.036329474 0.023528786 -0.059637476 0.035835274
0002e0 a8 c7 06 3e fe f0 41 bd 61 fe 2c 3d d1 29 ae 3c
       0.131621 -0.04734897 0.042234782 0.021260174
0002f0 0e 50 ac bc 99 2a 04 3d e1 77 f0 bc a8 88 44 3c
       -0.021034267 0.032267187 -0.029354038 0.011995472
000300 52 28 de 3c c7 38 12 3d 90 37 25 3d 71 12 24 bd
       0.027118836 0.03569868 0.04033619 -0.04005665
000310 df 5f 0e bd ca b2 e0 3c 34 4c 01 3b 1c fa dd 3c
       -0.0347594 0.027429003 0.0019729258 0.0270968
000320 1e 31 47 3d 5f b7 43 3d e9 8f ab 3c 7c 29 8f bd
       0.048630826 0.0477823 0.020942645 -0.069903344
000330 65 e2 a2 3b c3 6c c7 3d 60 d2 ca bc 49 5b a6 bb
       0.004970836 0.097375415 -0.024758518 -0.0050768
000340 6c 7c b2 3c cb c3 a0 bd e0 ab e6 3b f7 30 62 bd
       0.021787845 -0.078498445 0.007039532 -0.055222478
000350 24 71 05 3d 36 66 b6 bb 83 48 d1 3c da 20 24 bb
       0.032578602 -0.0055663837 0.025547272 -0.0025043995
000360 22 98 13 bd 30 34 db 3c a4 f9 08 bd 6f 8e 13 3d
       -0.036033757 0.026758283 -0.0334412 0.036024507
000370 41 19 7c 3c a1 af 34 3c 62 ca 21 3d 7e 45 b5 3d
       0.01538688 0.011028201 0.039499648 0.08851145
000380 12 d9 70 3d 47 9b 97 3c 76 b1 a1 bc bc e1 3a bc
       0.058800764 0.01850666 -0.01973794 -0.011406358
000390 3f 10 58 bd 66 ec 85 3c 8c 5a 22 3a e1 f0 1f 3d
       -0.05274987 0.016348075 0.0006193302 0.03904808
0003a0 ba 59 4a 3d 45 1b 0f bc d4 2a c3 3c fc f5 2c 3d
       0.049401976 -0.008734529 0.023824133 0.042226776
0003b0 69 9b 51 3d f6 b7 bd bc 03 fa 10 bd e5 23 8d bd
       0.0511736 -0.023159008 -0.03539468 -0.06891612
0003c0 d9 3e fb 3c c8 8d bf 3c 2d b8 88 3c 23 7e 0e 3d
       0.030669617 0.023383036 0.016689384 0.034788262
0003d0 2a e7 13 bd fd c8 93 3d bb 94 c1 3c d9 a9 39 3d
       -0.036109127 0.0721607 0.02363049 0.045327995
0003e0 27 41 f3 bc 9d b4 a8 bd 38 56 5f 3c 95 ef 88 3c
       -0.029694153 -0.08237574 0.013631396 0.016715804
0003f0 9e 6e 89 3d 43 3d ad 3d 47 41 05 bd 97 de 5d 3d
       0.06710552 0.0845895 -0.032532956 0.054167356

fc2.bias f4 [256]
000000 dd 47 20 ba 20 a2 ba 3b 70 f7 60 bb bc dd aa bb
       -0.0006114224 0.0056955963 -0.0034327172 -0.005214421
000010 1d b8 9f bc ac d8 f7 3a 74 95 2e bc bc d0 28 bd
       -0.019496972 0.0018909178 -0.01065575 -0.04121469
000020 e8 86 1c 3d 1b 11 f9 3c 72 ed 06 bd ec d5 42 bd
       0.038214594 0.030403664 -0.03294129 -0.047567293
000030 9f 7c 48 3d 6b 7f 06 3d 6f d0 bc bc 09 8c 04 3d
       0.048946973 0.03283636 -0.023048608 0.03236011
000040 98 f3 13 3d 18 52 4d bd 94 7c 5e bd 07 2e 2f 3a
       0.03612098 -0.05012712 -0.054318026 0.0006682579
000050 4b 71 82 3b 25 f4 af 3c 36 10 d8 3b db 66 49 3d
       0.0039807907 0.021478722 0.0065937294 0.049170356
000060 ca 95 8b 3d a0 41 65 3c 92 36 32 bd 5e 05 49 bd
       0.06815679 0.013992697 -0.043509074 -0.049077384
000070 74 c5 25 bd 5e a9 08 3c fa fe 14 bd 5c e5 5f 3d
       -0.04047151 0.0083411615 -0.036375977 0.054662094
000080 a6 8a 15 bd 37 e9 24 3d cc fa a4 3c db 5a db 3c
       -0.03650918 0.040261474 0.02013912 0.026776722
000090 06 cb 33 3c 15 a6 18 3c 5d a3 12 bd 1c 3f d8 3c
       0.0109736975 0.009316941 -0.035800327 0.02639728
0000a0 a5 77 3f ba 80 92 39 3d 75 4f 55 3d 71 53 3b 3d
       -0.00073039 0.04530573 0.05207773 0.045733873
0000b0 90 4c 60 bd eb ff 2f 3d cf 22 1c bd f6 59 35 3c
       -0.054760516 0.04296867 -0.038119134 0.011068812
0000c0 66 ca 34 3c 3c bc 6f 3d d5 fa 65 bd 36 e3 80 3b
       0.011034584 0.058529124 -0.056147415 0.0039333357
0000d0 ab d9 fd bc 45 6f 59 bc b2 80 21 3d 1e b6 6e 3d
       -0.030987581 -0.013271158 0.039429374 0.05827915
0000e0 b2 ac 07 3d 12 02 6e bd dc 0f 5a bd 68 70 1e bc
       0.03312368 -0.058107443 -0.05323778 -0.009670354
0000f0 c4 99 f3 3c 82 e4 4a 3d 88 39 15 bc 98 94 5a 3d
       0.029736407 0.04953433 -0.009107955 0.053364366
000100 62 ed 00 bd 0c 15 54 3d b5 f0 a7 bc a0 72 6e 3c
       -0.031476386 0.051777884 -0.02050052 0.014553696
000110 79 13 1e bd df 3c 16 bd ec 6f 81 3c 38 d1 6d bc
       -0.03859279 -0.036679145 0.015800439 -0.014515214
000120 73 20 c8 bc 24 fa 03 3d 6d 0c e9 3c 94 de 28 3d
       -0.024429535 0.032220975 0.028448308 0.041227892
000130 b6 ee 4a 3d a7 fe 26 3d c1 bf 77 3d 55 61 66 3d
       0.04954406 0.0407702 0.060485605 0.056245167
000140 38 b2 0a bc 4c 1d bd 3b a8 ba b7 3c c1 ec f6 bc
       -0.008465342 0.0057713147 0.022427872 -0.03014219
000150 b4 63 41 3d 7e 32 13 bd a5 21 a4 ba bc 68 1a ba
       0.047214225 -0.035936825 -0.0012522234 -0.00058902404
000160 f6 64 0e bc 18 dc 5b 3c 28 f3 72 bc cf 88 21 3d
       -0.008691063 0.013419174 -0.014828481 0.03943711
000170 4f f1 5e 3d 0a 98 6c 3d 46 e5 3c bd 67 4b 31 3d
       0.05442935 0.057762183 -0.04611709 0.0432848
000180 9c 91 2c 3d e0 37 97 3c 32 5e 49 bc 12 7d ad bc
       0.04213105 0.01845926 -0.012290524 -0.021177802
000190 bd ac 96 3c fc 30 61 3a 92 d7 29 bd e7 6e ce 3c
       0.018392915 0.0008590368 -0.04146535 0.025199367
0001a0 7e 49 02 bc fe 67 e9 3c ff bf 9d 3c f6 23 5f bd
       -0.007952092 0.02849197 0.01925659 -0.054477654
0001b0 47 32 83 bd cf 21 44 3d 08 8f d1 3c 1e b1 84 bc
       -0.06406074 0.047883805 0.025580898 -0.016197737
0001c0 94 a2 30 bd 11 dd c3 bc 81 33 16 3b ec b7 b8 bc
       -0.043123797 -0.023909124 0.0022918882 -0.022548638
0001d0 3e f1 58 3d 0d cd 9e bc 89 e2 81 3a f4 2a 5e 3d
       0.05296444 -0.019384885 0.0009909432 0.054240182
0001e0 91 ef 51 3d 8e 4a 82 bc e0 e0 13 3c 33 ce d2 3b
       0.05125386 -0.015904691 0.009025782 0.0064332723
0001f0 d3 c9 77 3c c0 82 e0 ba 3f bf a7 ba 12 49 a1 3a
       0.015123802 -0.001712881 -0.0012798085 0.0012305102
000200 b3 2b 82 bc 54 0e 42 bd b9 2a b9 3c 60 3b 31 3d
       -0.015889978 -0.047376946 0.02260338 0.043269515
000210 54 22 80 3c 3f d6 84 bc 52 ea 66 3d e0 4a 02 3d
       0.015641369 -0.016215442 0.05637581 0.031809688
000220 14 da e0 3c 5d f2 25 bd ff 36 72 bb 79 16 92 3d
       0.027447738 -0.04051434 -0.003695905 0.071331926
000230 8e fe b8 3c 4f 67 ed bc ae 9b da 3c 78 7f 41 3c
       0.022582319 -0.028979925 0.026685562 0.011810176
000240 90 86 41 3d c9 5b a6 bb ba 06 a0 bb 2e cd e0 3b
       0.04724747 -0.0050768596 -0.0048836144 0.006860397
000250 81 67 00 bd 6f f1 1b bd bc 2c df 3c fc 5c 0f 3d
       -0.03134871 -0.038072046 0.02724301 0.035000786
000260 13 94 39 bc 0a 32 61 bd 59 14 f8 bc ef 9c 57 bc
       -0.011326808 -0.05497936 -0.03028314 -0.0131599745
000270 54 d6 66 bd ef a0 fa bc 87 38 45 3d 80 d6 07 3d
       -0.056356743 -0.030594317 0.04814961 0.033163548
000280 7e ba 73 bd 05 38 32 bd 51 5f 2c 3d 8a 37 92 3c
       -0.059504025 -0.043510456 0.04208309 0.017848749
000290 0e 7e a9 3b 8e 48 f5 bb 93 62 56 3c ff ca 79 3d
       0.0051724976 -0.007485456 0.013085025 0.060984608
0002a0 08 fb b1 3c 4f e2 2e 3c 54 c6 0f 3c 25 b1 56 bd
       0.021726146 0.010674073 0.008775312 -0.052415032
0002b0 bb 5e 48 3d 4e 96 38 bd 21 ae df 3c c4 20 45 bd
       0.048918467 -0.045065217 0.02730471 -0.04812695
0002c0 22 8c 68 bd a6 28 72 bd ec 01 30 bd 36 65 00 3d
       -0.056774266 -0.059120797 -0.042970583 0.031346522
0002d0 e0 b8 7e 3d bc 76 2f 3d d5 3a 12 3d e8 5e 20 bd
       0.06218803 0.042837843 0.035700638 -0.03915301
0002e0 f0 59 84 3c 26 6d 13 bd 5c f5 54 3c 91 05 05 bd
       0.016156167 -0.035992764 0.012997951 -0.03247601
0002f0 88 61 42 3d 78 1e 41 3d b3 13 5c 3d 5a 19 4b 3d
       0.047456294 0.047148198 0.053729724 0.049584724
000300 bf 7b c9 3b 4d 06 4c bd e3 59 47 3d 18 d3 65 3d
       0.006148785 -0.049810696 0.048669707 0.056109518
000310 56 68 6b bd 18 63 bd 3c e7 dc 2f bd 7b 5a 41 bd
       -0.05747255 0.02311854 -0.04293528 -0.04720543
000320 e6 de 14 3d 97 ee 29 3d b4 ee 3e bd 01 34 e7 3c
       0.036345385 0.041487303 -0.046614364 0.02822304
000330 16 1d ef bc ae 4a 80 3d 37 63 88 3d 41 47 bd 3c
       -0.029188674 0.06264244 0.06659549 0.023105266
000340 a7 ef 15 3d 26 5c 25 bd 8f 2f 02 3c ab 1b f5 3c
       0.036605503 -0.040371083 0.007945909 0.02992042
000350 eb 83 64 3d 9c 9e 4d 3c 97 e9 a9 3c 3c be aa bc
       0.05578987 0.012550022 0.020741267 -0.020842664
000360 5c 7b 73 3d a9 f8 76 3c 5f da 86 ba 85 b2 59 bd
       0.059443817 0.015073934 -0.0010288468 -0.053148765
000370 e8 7a 48 3c 60 fc 30 3d a0 db 25 bd e3 01 ca 3c
       0.012236334 0.043209434 -0.040492654 0.024659103
000380 70 0f 32 3c 1f 8f 60 3d 60 e4 55 bd 54 f2 04 bc
       0.010867938 0.05482399 -0.05221975 -0.008114416
000390 9f e9 cb 3c 4f 6d cc bc 7a 96 af bc 16 df 3e bd
       0.024891673 -0.024954466 -0.021434058 -0.04659947
0003a0 7c a2 0c bd fc df 05 3c 5d f6 ea 3c 32 9f 46 3d
       -0.034334645 0.008171078 0.028681928 0.048491664
0003b0 e9 97 ce 3c 6f 64 0d bd e0 4d e4 3c 2c eb b8 bc
       0.02521892 -0.03451961 0.027869165 -0.022573076
0003c0 04 19 4d bd 35 d1 9e 3c 15 cc 06 bd f0 25 4a bd
       -0.050072685 0.019386867 -0.03290947 -0.049352586
0003d0 a8 28 1e bd a8 80 d1 bc b4 c8 12 3d b0 dc 51 3d
       -0.03861299 -0.025574043 0.035835937 0.051235855
0003e0 58 47 87 bc 06 d6 72 3d 2c ec 04 bd 11 f7 d5 3b
       -0.016513512 0.05928614 -0.032451794 0.0065296968
0003f0 64 ef d8 bc 29 c8 7c 3c 55 f8 fd bc 59 36 de 3c
       -0.026481338 0.015428581 -0.031002203 0.027125524

fc3.weight f4 [2, 256]
000000 e5 9a b2 bc ea 7e 3b 3d ef fe 6d 3d a5 58 8a 3d
       -0.021802375 0.04577533 0.05810445 0.06755189
000010 85 e5 63 3d 6d 11 18 bd e3 cb 9e bd d3 83 e5 3b
       0.05563881 -0.037125994 -0.07753732 0.00700424
000020 30 4e f6 bb a4 75 5d bd 34 5d 52 3d 98 cf a4 3c
       -0.007516645 -0.05406727 0.051358417 0.02011852
000030 5e 6f 25 3d 02 cd ba 3d 35 a3 82 ba ed d0 40 3c
       0.04038941 0.091211334 -0.0009966852 0.011768562
000040 b1 4d 37 3d 48 32 0d 3d a1 d3 ce bd a6 29 85 bc
       0.044751827 0.03447178 -0.10098959 -0.016255211
000050 fa 6b 4f bd 1a 1e 8b 3c 45 ea 27 3d c0 b3 33 3d
       -0.050640084 0.016982127 0.0409949 0.043872595
000060 1c f5 6f bb 06 62 4e 3d 98 b5 2d 3c ee 50 0b be
       -0.0036614602 0.05038645 0.010602377 -0.13605091
000070 9f 11 a2 bd 10 8b 6c bd ec e1 95 3c 5d 1a 84 bd
       -0.07913517 -0.057749808 0.018296205 -0.06450341
000080 34 f0 6f 3d 12 62 36 3d 2a 30 02 bd 9c b0 a1 3a
       0.058578685 0.04452712 -0.031784214 0.0012335959
000090 46 f8 2c bc 4b 66 91 bc 33 1c 74 bd 4b 92 76 bc
       -0.01055724 -0.017748972 -0.059597205 -0.015049527
0000a0 de c7 81 3d 2e 98 16 bd 20 5f 5d 3d ba c4 bd bc
       0.0633695 -0.036766224 0.054045796 -0.023165096
0000b0 40 cd ad 3b 98 25 8b 3d 5f 5c 96 bd 05 80 37 bd
       0.0053040087 0.0679428 -0.07341837 -0.044799823
0000c0 c0 f4 e4 bb d1 08 1f bd 7a f1 91 b9 2d 60 48 3d
       -0.0069871843 -0.038826767 -0.0002783647 0.048919845
0000d0 06 5a a4 3d 6b 9c 33 bc c7 a9 10 bc 9a cc 5c bd
       0.08024983 -0.010962586 -0.008829541 -0.05390606
0000e0 4a f6 73 3d 1c 3a 28 bd 6c b6 58 3d 50 00 00 3d
       0.05956105 -0.041071042 0.052908346 0.031250298
0000f0 fc 4b b9 3c 05 91 43 bd 7b 8a e0 bc 33 ef 79 3c
       0.02261924 -0.047745723 -0.027409783 0.015254783
000100 ad de 1b 3d 77 19 1f bd b4 0e 2e 3d ce e3 29 bd
       0.038054157 -0.038842645 0.04249449 -0.041477017
000110 da 96 bb bc f6 39 3a 3d fd b6 55 bc 90 93 fe 3c
       -0.02289908 0.045465432 -0.013044116 0.031076223
000120 bb f0 23 3d f2 da 94 bd 00 d0 8b bc 15 5d 28 bd
       0.0400245 -0.07268323 -0.017066956 -0.041104395
000130 18 d2 61 3d 8a 70 a8 bc 9f 2a 2a bc b1 d6 2c 3b
       0.055132 -0.020561475 -0.010386138 0.0026373083
000140 dd 02 95 bc 4e 32 db 3c 04 3a a6 3d 3f a8 8c bc
       -0.018189842 0.026757386 0.08116534 -0.01717007
000150 2a 65 8a 3d f7 04 47 bd 66 8c 2d bd ff 7a 2d 3d
       0.06757577 -0.04858872 -0.042370223 0.042353626
000160 9f ea 8e bb e1 da 12 3d e4 07 35 3d 0e bd 14 3d
       -0.004361465 0.03585327 0.04419698 0.03631311
000170 f0 1f a4 3c 81 d9 1a 3b 96 c1 22 bd df 3b 8d bd
       0.02003476 0.0023628178 -0.0397354 -0.06896185
000180 4a 1c ec 3b b0 b4 67 3c 75 1c d7 3b 44 1c 04 be
       0.0072055208 0.0141422 0.0065646716 -0.12901407
000190 09 f7 62 3d 0c 0d bd bc e5 d0 4d 3d 02 ed 6d bd
       0.055411372 -0.02307751 0.050248045 -0.058087356
0001a0 5c 46 9f 3d e4 4f 31 3d b0 03 50 3c 9b 18 12 bd
       0.07777092 0.04328908 0.012696192 -0.035667997
0001b0 22 b4 43 3d 66 c5 88 bc 0c 9e 4b 3d f4 99 31 bd
       0.04777921 -0.01669569 0.049711272 -0.04335971
0001c0 e7 3e 0c bd fe 1e 86 bd 17 92 cf bc a3 70 2a bd
       -0.034239676 -0.0654888 -0.025338216 -0.041611325
0001d0 00 da f6 bc ea d2 d9 3c 72 21 e8 3c 22 65 31 bd
       -0.030133247 0.02658983 0.02833626 -0.04330934
0001e0 af 04 d0 bb 49 55 47 3d a8 c9 8e bd f5 fc 70 3d
       -0.0063482146 0.04866532 -0.069720566 0.05883499
0001f0 94 ea 3f 3d 66 52 78 3d dc c1 3f bb ad 58 19 3d
       0.04685457 0.060625456 -0.0029259836 0.037438083
000200 9e 6e 7f bd 33 89 25 bd 94 ee 29 3d ee 37 2d bd
       -0.062361352 -0.040414046 0.04148729 -0.042289667
000210 44 b8 7f bd 70 67 05 bd a2 32 e2 bc 21 a9 52 3d
       -0.06243159 -0.03256935 -0.027612034 0.051430825
000220 1a ef 92 bc 9f 37 2c bc 7d 39 03 3d 17 fc 04 bd
       -0.017936278 -0.010511308 0.032037247 -0.032466974
000230 f2 6d dc bc d6 80 08 be ce 45 01 3d 3b 23 71 3d
       -0.026907895 -0.13330397 0.03156071 0.05887149
000240 29 a4 d7 bd e0 10 4c bd fd 8d e8 bc 6d dc 84 bd
       -0.10529358 -0.04982078 -0.028388018 -0.064873554
000250 b6 d3 8b bd 1a d6 73 3c 36 9f 8b 3c 00 69 af b9
       -0.0682749 0.014882589 0.017043691 -0.00033456832
000260 26 bd ac 3c 00 3a 2d b9 4d 4d 8b 3c 46 74 4e 3d
       0.021086287 -0.00016520172 0.017004633 0.050403856
000270 17 6f b2 3c 7b 13 67 bd 00 db 27 3d 8f 54 a3 3d
       0.021781487 -0.056415062 0.04098034 0.07975113
000280 f0 ed 52 bd 15 eb 84 3d e1 83 12 3d 12 46 6f 3d
       -0.051496446 0.06490151 0.0357703 0.058416434
000290 dd e7 0f 3d 0c f3 13 bd b6 b2 15 bd fd 14 46 bd
       0.03513323 -0.03612046 -0.036547385 -0.04835986
0002a0 1c 54 42 3d 83 4c 72 3d 57 14 f4 3c a8 e7 e9 3c
       0.047443494 0.059155 0.029794855 0.028552845
0002b0 73 17 98 bd 00 d1 92 ba 0d 07 bf bd 0c 3f a5 bd
       -0.074263476 -0.0011201203 -0.09327517 -0.08068666
0002c0 90 ba e1 bc 37 37 4d 3d 80 85 4e bb 86 71 75 3d
       -0.02755478 0.050101485 -0.0031512678 0.059922718
0002d0 fd 2f 97 3c 78 c3 71 bd ee 7f 24 bd f0 85 d5 bb
       0.0184555 -0.059024304 -0.040161066 -0.0065162107
0002e0 00 39 16 3b 2e 7a 5f 3d d4 42 b9 bd 8a 0c 46 3d
       0.0022922158 0.05455988 -0.090459496 0.048351802
0002f0 a8 12 d2 bb 72 b3 d5 bc 17 16 72 3d ee 74 6b bd
       -0.0064109154 -0.026086543 0.059103098 -0.05748456
000300 ee e9 8d bb b9 2e 87 bd a8 62 af 3c 0d 62 35 bb
       -0.004330865 -0.066007085 0.021409348 -0.002767685
000310 82 9e 2e bd e2 de 2b 3d 18 1a 46 bc 11 5d ca bd
       -0.042631634 0.041960604 -0.012091182 -0.09881032
000320 a0 99 2a bd 37 0d 26 3d 3b f1 2a 3d c1 f8 ca bc
       -0.041650414 0.040539946 0.04173396 -0.024776818
000330 01 bc 66 3c ed 41 4f 3d 0a 8e d8 bd bb 30 69 3d
       0.01408291 0.05059998 -0.10573967 0.05693124
000340 74 f2 ab 3c 75 5e bb 3b b7 6e 75 bb 80 e1 0f 3d
       0.020989634 0.0057180473 -0.0037450024 0.035127163
000350 40 5d 39 3d d9 b0 a5 bd be d6 78 bc 58 89 23 bd
       0.045254946 -0.08090372 -0.015187917 -0.039925903
000360 fb 39 fa bc 49 1b 65 3c e8 27 55 3d 53 2c 2e bd
       -0.030545225 0.013983556 0.05204001 -0.04252274
000370 25 71 93 bd 58 f3 06 bd 4e 7e a7 bc a2 30 1b bc
       -0.07199315 -0.032946914 -0.020445969 -0.009472044
000380 c1 96 c2 3d 51 3c 4d 3d 49 55 d5 ba 5d e1 ca bd
       0.0950141 0.05010635 -0.0016276027 -0.09906266
000390 a9 fe 64 bd d5 75 cf bc 3b 04 80 3d e4 93 7a 3d
       -0.055906925 -0.025324741 0.06250807 0.061176196
0003a0 8a 5d 02 bd a4 2d a1 bd a0 43 8d 3c f0 ec 9c bc
       -0.031827487 -0.078700334 0.01724416 -0.01915595
0003b0 0f 94 8c 3c e0 90 56 bc 00 78 f6 3a 89 25 09 be
       0.017160444 -0.013096064 0.0018804073 -0.13393225
0003c0 19 c0 e5 bd 66 f1 78 3d a2 29 37 3d 5c a6 ee bc
       -0.1121828 0.06077709 0.04471744 -0.02913206
0003d0 5e 71 bf bc 2c 84 98 3c 10 0b d4 3c bf 0b 8c 3d
       -0.023369487 0.018617712 0.025884181 0.06838178
0003e0 1a 04 1b bd 81 01 35 3d 74 a5 8e 3d e5 3c 16 bd
       -0.03784571 0.044190887 0.069651514 -0.036679167
0003f0 52 77 91 bd 07 9a 9c bd ab 0a 66 bd e8 82 13 3b
       -0.07102837 -0.07646566 -0.056162518 0.0022508446

fc3.bias f4 [2]
000000 f5 fd a4 3b f0 a8 54 3d
       0.005035157 0.051918924
