open_spiel/test_ppo_model.pth (torch, 45158 bytes, 11 tensors)

network.critic.0.weight f4 [64, 11]
000000 f9 95 ca 3e 28 e1 20 be 21 60 32 be e2 31 5b 3e
       0.39567545 -0.1571089 -0.17419483 0.21405748
000010 95 6c db bd 7c 4d b2 bd 38 c7 e9 3d c4 4a 9c bd
       -0.1071407 -0.08706185 0.11414951 -0.07631448
000020 20 1d d6 3d 2c 23 4b bb 52 fa ae bd 39 c8 96 bd
       0.10454774 -0.0030996306 -0.085438386 -0.07362408
000030 58 49 28 bd 7d 16 f3 bd 59 c1 c0 bd 21 64 0f 3f
       -0.04108557 -0.11869524 -0.09411878 0.5601216
000040 6e a7 de 3c c0 52 74 3d c5 46 a8 3e d8 b7 a5 bd
       0.027179446 0.05964923 0.32866493 -0.08091706
000050 77 fd 75 bd 93 fd 92 be 49 4b 9f bd b3 6f aa be
       -0.060056176 -0.28709087 -0.077780314 -0.33288345
000060 8a 00 db 3d a0 e6 8d be e7 ab 15 be 93 b9 29 3d
       0.10693462 -0.27715015 -0.14616357 0.041436743
000070 df 3d 11 bc 42 43 99 be 97 2e 83 be e8 c2 43 be
       -0.008864849 -0.29934126 -0.25621483 -0.1911732
000080 3d be 59 bc 46 0e 26 be e4 63 36 3c fb d5 96 3c
       -0.013289985 -0.16216382 0.011132214 0.01841258
000090 f8 d3 9c 3e 51 10 8c bc 4c f6 94 3e 16 2b c3 bc
       0.3063047 -0.017097624 0.2909416 -0.023824256
0000a0 14 27 57 be f8 82 31 3e cb bc f5 bd 6b 7a df 3d
       -0.21011001 0.17335117 -0.119989 0.10912021
0000b0 7a 30 4e 3e 42 32 c4 3d 7f 70 dc be 65 7f 49 bd
       0.2013568 0.095798984 -0.43054578 -0.04919376
0000c0 1a bf bb bd cf 66 59 3c bb fd 0c be b0 70 d3 3c
       -0.09167309 0.01326914 -0.13768665 0.02581057
0000d0 96 52 18 3e 05 c7 d2 bd e5 8f 82 be 75 f6 15 3e
       0.14875254 -0.10291866 -0.25500408 0.14644797
0000e0 8a 57 be be 25 be 05 bd 2a 55 6d be 3d 0d b1 bd
       -0.37176162 -0.03265204 -0.23177019 -0.08645103
0000f0 b6 22 0d be 3b 28 b4 be 3a c3 8e 3d 01 be 85 bd
       -0.13782772 -0.35186943 0.0697083 -0.06530381
000100 22 d9 fb 3c 09 45 99 3c dd 04 ed bd aa a5 f9 3d
       0.030743185 0.018709676 -0.11573193 0.12189801
000110 18 7c ac be 22 18 c2 be 7d ac 53 bd a8 74 bd 3b
       -0.33688426 -0.37909037 -0.05167817 0.005781729
000120 61 f6 2c bd 53 ab 27 be ab f0 b0 be 3b 2e 32 bd
       -0.042227153 -0.16373949 -0.34558615 -0.04350112
000130 66 2e c8 bd 29 de 6a 3e ce fd 26 3d a0 3a b0 3d
       -0.09774475 0.2293631 0.04076939 0.08604932
000140 93 af ed bd a3 51 e3 3d e2 12 67 3e 1e 5b 98 be
       -0.11605754 0.11099555 0.22565797 -0.29757017
000150 05 5e 3d 3e ea 93 15 3e 5e 73 cb 3d 43 c7 60 be
       0.18492897 0.14607206 0.09934114 -0.21951012
000160 c4 f3 64 3c 8b 26 7a be c1 7a e0 bc 3d ac 31 3d
       0.013974134 -0.24428765 -0.027402284 0.04337715
000170 76 ad 10 3e 53 64 40 3e 91 0b ea 3d 87 0f 5c be
       0.1412867 0.1878827 0.11427987 -0.21490298
000180 33 0b 67 3d 4a 69 ce 3d e6 de 61 be aa 9c a9 bc
       0.056407165 0.10078676 -0.22057685 -0.020704586
000190 28 ca 80 be 8d 74 22 3e 00 19 3b be ec 83 a6 3e
       -0.25154233 0.15864773 -0.18271255 0.32522523
0001a0 90 dc f2 3a c9 34 68 bb 0e 13 0d bd 11 d7 e5 bd
       0.0018528868 -0.0035431853 -0.034442 -0.11222661
0001b0 22 99 e4 bc 62 23 b5 be 66 43 1a 3d 28 62 00 3e
       -0.02790505 -0.35378557 0.037661932 0.12537444
0001c0 a4 57 45 be f4 bc 31 be ba 38 16 be fc 9d 90 3d
       -0.19271713 -0.17357236 -0.14670077 0.07061383
0001d0 42 38 82 3c 01 29 c5 3d 5e c2 dd 3d 28 df a8 3c
       0.015895966 0.096269615 0.10828088 0.020614222
0001e0 d3 84 11 3e 42 76 f9 3d 31 9d 85 3d 22 53 0e 3e
       0.14210825 0.12180759 0.065241225 0.138989
0001f0 ea 6d c9 3d 9c 4c cc bc 41 e6 6f 3e 4e b1 25 3e
       0.098354176 -0.024938874 0.23427679 0.16180918
000200 77 3f b1 bc f6 e2 7a 3e 8a 48 90 3b a9 55 4d 3e
       -0.021636708 0.24500641 0.0044031786 0.20052208
000210 5b b9 de bd e5 35 26 3e 39 14 20 3d 2f 6e 06 be
       -0.108751975 0.16231497 0.039081786 -0.13127969
000220 d1 7c d1 3d db 2e 3f 3d f5 2d a7 3e 68 38 ac bd
       0.10228885 0.046675544 0.3265225 -0.08409196
000230 fe fc e6 3e 0a c8 4f bd 86 69 a4 be 06 70 55 3e
       0.45114893 -0.05072788 -0.32111758 0.20843515
000240 78 85 83 be 83 52 4c be f3 45 ba 3d 25 d6 8f be
       -0.25687766 -0.1995335 0.09095373 -0.28093067
000250 6d 3e d6 bb a1 62 5f be 1e c0 32 3e 55 74 2f bd
       -0.0065382035 -0.21814968 0.174561 -0.042835552
000260 6d ba 81 3e 23 8e 9f bd bd 6a c2 3c 35 5e d0 bd
       0.25337544 -0.07790782 0.023732537 -0.101742186
000270 18 96 cd bd 8e 8e 87 bc 1d 3a 57 3e b9 9e a7 3e
       -0.10038394 -0.016547468 0.21018262 0.32738283
000280 aa b5 c0 3e 98 ab f6 3d 4a 4f 9b 3d 5a 63 57 3c
       0.376386 0.12044448 0.075834826 0.013146246
000290 5e 41 30 3e b4 f2 77 3e 5d 44 19 b9 73 0e 5b 3b
       0.17212436 0.24213678 -0.00014616684 0.003342536
0002a0 ba 6f 8d 3d 56 0b 80 be 5e c4 94 3e 3d 3b d3 bd
       0.06906076 -0.2500865 0.29056066 -0.10314033
0002b0 28 d3 77 be f7 b4 9f 3d 6c 7a 46 bc e1 ea 3d 3c
       -0.24201643 0.07798188 -0.012114149 0.011591644
0002c0 cf 58 e2 3d dc d7 ea 3c 03 a3 7f 3e 45 8f ff bd
       0.11052095 0.028667383 0.24964528 -0.12478498
0002d0 4f b3 6a be f9 10 d1 bd 37 f6 f0 3e 7a f7 0c 3e
       -0.22919963 -0.102083154 0.47062847 0.1376628
0002e0 31 21 8d be c3 cf 99 3e 97 47 03 3d da c6 00 bd
       -0.27564386 0.30041322 0.032050695 -0.03143964
0002f0 92 b1 37 3d c9 22 7f 3e 2d b1 80 3d 60 cb 6a bd
       0.04484708 0.24915613 0.062837936 -0.05732286
000300 90 f6 94 bb 57 77 06 be a2 55 a5 3e a2 16 4c 3d
       -0.004545994 -0.13131462 0.32291895 0.04982627
000310 30 dd 82 3d 4a 71 51 bd e6 69 12 3d 0e 6f f4 bd
       0.063898444 -0.05113343 0.035745524 -0.119352445
000320 a5 a5 f3 3d ae a9 18 bd f1 62 2a be 6e 36 f2 3d
       0.118968286 -0.037271194 -0.16639306 0.11826788
000330 ae 3a 3c 3e 79 bb b9 3e 19 80 66 be 60 57 2a bd
       0.1838176 0.36275843 -0.22509803 -0.041587234
000340 4c d9 10 bd 82 71 b3 3c 49 56 3f bc f8 28 11 bc
       -0.03536348 0.02190471 -0.011678287 -0.008859865
000350 15 2b a1 be 61 01 45 3e fa b8 23 be 95 aa aa bc
       -0.3147818 0.19238807 -0.15988532 -0.020833293
000360 02 bb 92 be f9 3a e6 3d 6a ef 46 3d aa d7 69 bd
       -0.286583 0.11241717 0.048568167 -0.05709044
000370 ee 6e 7d 3d c8 c3 e6 3e d8 7e 9a be 25 fe 8b 3e
       0.06187337 0.45071244 -0.301749 0.27342334
000380 94 ab b9 be db c4 6a bc d2 dc 8c 3e 05 1e ae 3d
       -0.36263716 -0.014329161 0.27512223 0.085018195
000390 3e 49 72 3e 6c ef 5c be d7 84 0f bd 10 97 05 bd
       0.23660752 -0.21575707 -0.035038795 -0.032614768
0003a0 3c f3 a2 bc 51 33 b6 3e 8e e3 f7 3e 49 61 db 3d
       -0.019891374 0.35586026 0.48415798 0.10711915
0003b0 49 78 48 be f5 6f a7 bd ca 83 1b be e3 b3 93 3e
       -0.19577135 -0.08175651 -0.15186992 0.2884818
0003c0 41 c1 68 3e a8 d6 44 be 73 4d 2d bd 44 9d 02 bd
       0.2272997 -0.1922251 -0.04231019 -0.03188826
0003d0 a9 b0 f7 3d 05 9c 58 3d 30 7b 2d be d7 aa e4 bd
       0.12094242 0.052883167 -0.16941524 -0.111653976
0003e0 31 6b f1 3d 28 1e 48 be a2 1c 37 be 35 19 9c bd
       0.11788023 -0.19542754 -0.17882016 -0.07621995
0003f0 26 1b 50 3d eb a5 85 3c 5d 59 54 3e a3 1e 58 bd
       0.05080714 0.016314467 0.20737214 -0.052763592

network.critic.0.bias f4 [64]
000000 00 00 00 00 00 00 00 00 00 00 00 00 00 00 00 00
       0.0 0.0 0.0 0.0
000010 00 00 00 00 00 00 00 00 00 00 00 00 00 00 00 00
       0.0 0.0 0.0 0.0
000020 00 00 00 00 00 00 00 00 00 00 00 00 00 00 00 00
       0.0 0.0 0.0 0.0
000030 00 00 00 00 00 00 00 00 00 00 00 00 00 00 00 00
       0.0 0.0 0.0 0.0
000040 00 00 00 00 00 00 00 00 00 00 00 00 00 00 00 00
       0.0 0.0 0.0 0.0
000050 00 00 00 00 00 00 00 00 00 00 00 00 00 00 00 00
       0.0 0.0 0.0 0.0
000060 00 00 00 00 00 00 00 00 00 00 00 00 00 00 00 00
       0.0 0.0 0.0 0.0
000070 00 00 00 00 00 00 00 00 00 00 00 00 00 00 00 00
       0.0 0.0 0.0 0.0
000080 00 00 00 00 00 00 00 00 00 00 00 00 00 00 00 00
       0.0 0.0 0.0 0.0
000090 00 00 00 00 00 00 00 00 00 00 00 00 00 00 00 00
       0.0 0.0 0.0 0.0
0000a0 00 00 00 00 00 00 00 00 00 00 00 00 00 00 00 00
       0.0 0.0 0.0 0.0
0000b0 00 00 00 00 00 00 00 00 00 00 00 00 00 00 00 00
       0.0 0.0 0.0 0.0
0000c0 00 00 00 00 00 00 00 00 00 00 00 00 00 00 00 00
       0.0 0.0 0.0 0.0
0000d0 00 00 00 00 00 00 00 00 00 00 00 00 00 00 00 00
       0.0 0.0 0.0 0.0
0000e0 00 00 00 00 00 00 00 00 00 00 00 00 00 00 00 00
       0.0 0.0 0.0 0.0
0000f0 00 00 00 00 00 00 00 00 00 00 00 00 00 00 00 00
       0.0 0.0 0.0 0.0

network.critic.2.weight f4 [64, 64]
000000 8a d3 9b be 23 18 86 3e eb 9c 81 be 34 7e 11 bd
       -0.3043483 0.2619029 -0.2531503 -0.035520747
000010 7c 33 83 bd 28 45 b2 3d 7a 6d 4f 3e 41 99 37 be
       -0.06406304 0.08704597 0.20256606 -0.17929555
000020 1f ea 2d 3d a8 c1 a8 3d 45 a0 df 3d 38 ea 17 bd
       0.042459603 0.08240062 0.10919241 -0.037088603
000030 b2 2f 34 be 35 17 12 be 14 d7 4b 3e e1 4d 6e bd
       -0.1759632 -0.14266665 0.19906265 -0.05817974
000040 b9 98 00 3e 55 3d 53 3e 5a 04 96 3c 82 56 15 bd
       0.12558259 0.20628865 0.018312622 -0.036459453
000050 b8 c1 f3 bd 58 54 a0 3d 7e 2f 00 3e 2c 51 56 3e
       -0.11902183 0.07828587 0.12518117 0.20929402
000060 21 e3 c8 3d a2 ed b5 be 62 0d c6 3b b9 8b 53 be
       0.098089464 -0.35532862 0.006044076 -0.20658769
000070 9f ee c8 3d a3 1f 90 3d 23 de 1f be 68 96 e2 3d
       0.09811138 0.07037284 -0.15612082 0.11063844
000080 c2 f6 65 bd 38 04 58 be d1 7b 68 be 08 ea ea bc
       -0.05614353 -0.2109536 -0.22703482 -0.028676048
000090 01 cd 6d 3d e1 d6 eb 3d d1 a9 6f be fb c2 bf be
       0.058056835 0.11515594 -0.23404624 -0.37453446
0000a0 fd 51 d0 bd e8 21 0b bd ae ed 5a bc e9 39 01 be
       -0.10171888 -0.033967882 -0.013362331 -0.12619747
0000b0 36 ee 44 bd 5f 28 98 bd d1 c0 95 be 6b 92 8f bd
       -0.04807874 -0.07429575 -0.2924867 -0.07010349
0000c0 d9 81 4b 3c 43 35 9a be 4f 27 f0 3d 63 5f 45 3e
       0.012421095 -0.3011876 0.117262475 0.19274668
0000d0 47 44 3b be 23 cc 5a bd c9 54 84 be f4 60 88 bd
       -0.18287764 -0.053417336 -0.25845936 -0.06659117
0000e0 76 42 99 bd 96 be c7 be f9 1f 2b 3e f6 26 ac bc
       -0.074833795 -0.39012593 0.16711415 -0.021014672
0000f0 ba ed c8 3e d9 4e d1 bd b9 01 a2 be 81 b0 82 3e
       0.3924387 -0.10220117 -0.3164194 0.25525287
000100 dd 1b a3 ba 1c d5 ef 3d 85 8f 33 bd 6f 4b 91 3e
       -0.0012444217 0.11710569 -0.043838043 0.28377864
000110 d8 02 84 bd b2 1e af 3e d8 e3 76 3d d6 5c 14 3d
       -0.06445855 0.34203106 0.060275882 0.036221348
000120 3d 49 28 be 25 14 57 be 57 3a 70 bc 32 4c 89 3d
       -0.16434188 -0.21003778 -0.014662347 0.06703986
000130 cb 04 97 bd a9 b2 af 3d c5 42 35 3e 0e a1 5d 3e
       -0.07373961 0.085789986 0.17701252 0.21643469
000140 60 a2 01 bf 23 bf 09 be b7 34 27 bc 24 a1 89 3d
       -0.5063839 -0.13451819 -0.010205439 0.06720188
000150 f7 e1 88 3d 80 0a 53 be af af cc 3d 31 ae 0c be
       0.066837244 -0.20609474 0.099944465 -0.13738324
000160 0e 6d 89 3c 4c 73 5c bc 34 ba 92 be 5e 7c 20 3d
       0.016775634 -0.013455223 -0.28657687 0.039181106
000170 36 c6 ae 3e 4b 5c 5b be c5 48 7c be 46 2c 91 be
       0.34135598 -0.21421926 -0.24637134 -0.2835409
000180 b7 e0 ab 3d da 38 7a 3d fe fd 9b 3d 6a 06 30 3e
       0.0839247 0.061089374 0.076168045 0.17189947
000190 86 8b bd be 06 e4 8e be 89 fc ef bd b5 23 4b bd
       -0.3702051 -0.27908343 -0.11718089 -0.0495946
0001a0 fd 0b 8f be a9 a1 ca bd bd ba 9a be 23 b3 8b bd
       -0.27938834 -0.098941155 -0.30220595 -0.06821277
0001b0 94 6d 45 be 61 c6 c5 3d bd 54 43 be a2 3f a6 3d
       -0.19280082 0.096569784 -0.19075294 0.08117606
0001c0 8e 82 ab bd e8 b3 c1 bd c8 f0 33 bc 7c 45 e2 bd
       -0.08374511 -0.094581425 -0.0109827 -0.11048409
0001d0 d4 ab b8 bd 2a fd 06 3d d0 59 b4 bd 53 13 cf 3e
       -0.090171486 0.03295628 -0.08806193 0.4044443
0001e0 47 b0 db 3d 5c 87 15 bb 4a 89 ba bd 35 e6 14 be
       0.107269816 -0.0022816276 -0.09108217 -0.14540942
0001f0 41 2c e9 bd de 96 6f 3d d8 86 b1 3c cd 9e 67 3e
       -0.11385394 0.058493488 0.021670744 0.22619171
000200 f5 a8 6f 3b b3 e9 3a 3d 80 f8 57 3d 1d 5d cd 3e
       0.0036569212 0.04563303 0.052727222 0.40110102
000210 26 e8 30 be 62 df 0a 3d 71 fe d5 3d f0 b3 aa 3e
       -0.17276058 0.03390444 0.104489215 0.33340406
000220 7a f3 09 be 09 5b 87 3e be 5d 76 bd bf fa 31 bd
       -0.13471785 0.26436642 -0.060147993 -0.04345202
000230 c2 1f 18 be e5 ed 5b 3e 6b 38 b2 bd 81 42 d3 3c
       -0.14855865 0.21477468 -0.08702167 0.025788547
000240 3e 99 ee bd 6e db 92 3e 9d d5 e6 bb 4e 6b 9f 3d
       -0.116503224 0.28683037 -0.0070445077 0.077841386
000250 3c 7e 5f 3e f8 8b f6 3c 42 2f d4 be be bb 6e 3e
       0.21825498 0.03009604 -0.41442305 0.23313805
000260 22 55 19 3e 18 13 e2 3c 01 af e4 3d 4a cc 55 3e
       0.14973882 0.027596995 0.11166192 0.20878711
000270 34 83 8d be e8 a8 a0 bd 11 79 9a bc 8d 68 04 be
       -0.27639163 -0.07844716 -0.018856557 -0.12930508
000280 53 06 56 bc ee 02 58 bd d2 24 4b be c8 8d 78 bd
       -0.013063031 -0.05273717 -0.19838265 -0.060682088
000290 53 6d b6 bd fe 82 26 3e 9e 3a 5c 3c 28 1f ed 3d
       -0.08907571 0.16260907 0.01344171 0.11578208
0002a0 36 2e b2 3e d3 b5 2d be 1c de b5 3e 57 68 6e be
       0.3480088 -0.16963892 0.35521019 -0.2328199
0002b0 4e 59 42 bd 54 36 8f bd 80 fb e3 bc 26 92 2f bd
       -0.04744845 -0.06992784 -0.027829885 -0.042863987
0002c0 2c 2f 94 be de 4f d7 3d 93 66 14 3e c5 86 47 bd
       -0.2894224 0.1051328 0.14492254 -0.04871251
0002d0 2e ee 18 be 2a 7e 30 3e f8 f5 00 3d d3 6d ae 3c
       -0.14934608 0.17235628 0.031484574 0.021292603
0002e0 eb 14 9f 3e 67 9e f1 3c df 50 ad bd 04 38 49 3d
       0.31070647 0.029494477 -0.084626906 0.049125686
0002f0 73 23 04 3e 91 35 33 3d 7f 32 54 3d be 2b f1 3e
       0.12904148 0.043752257 0.05180597 0.47103685
000300 ff 74 8c bc 73 79 c6 bd 29 1d 96 bb 04 7f 97 3e
       -0.017145632 -0.09691133 -0.004581113 0.29589093
000310 f4 0c 57 3e 47 5b 11 3e 01 4a 08 be 4b 77 2f be
       0.21001035 0.14194976 -0.1330948 -0.1713535
000320 63 d9 64 bb d6 d2 27 3e c5 2d 60 3b 4d ab 01 be
       -0.0034919612 0.16389021 0.0034206968 -0.12663002
000330 c2 41 5b 3d b9 1e ba bd 27 1f 55 3e b2 e6 8f 3d
       0.05352951 -0.09087891 0.20812665 0.070264235
000340 12 90 26 3e 47 1f b1 be 07 4f 79 3a 2b d1 91 3e
       0.16265896 -0.34594175 0.0009510372 0.28479895
000350 b8 ce 00 3e 27 49 39 3d 4d ff 8e 3e 27 96 b4 bd
       0.12578857 0.04523578 0.27929154 -0.08817702
000360 65 ba 79 be 51 fe 04 be 63 10 af bd 21 cb 54 3e
       -0.2438751 -0.12987639 -0.085480474 0.20780613
000370 3e 6f ad be ff 81 46 bd c9 40 c4 3c 9e 53 d0 3c
       -0.33873934 -0.048463818 0.023956673 0.025430497
000380 94 dd 00 3e fb 9a ee 3d 79 8e 61 3e f9 66 b6 3d
       0.12584525 0.11650654 0.22027005 0.08906359
000390 53 53 c1 3d 2c 59 57 3e d9 a0 8b be 00 7a 0f 3b
       0.09439721 0.2103011 -0.27271155 0.0021892786
0003a0 7e 1d 9a bd c4 b4 7c be b3 b1 62 3e 30 8b ad bd
       -0.075251564 -0.24678332 0.221381 -0.084738135
0003b0 55 c3 1a bd 07 43 18 bd 9e 66 9d 3e 39 f9 8a 3e
       -0.03778394 -0.037173297 0.30742353 0.27143267
0003c0 f0 6e 90 3e 4e f3 f6 3d 54 8c 99 3d ac 92 58 3e
       0.2820964 0.120581254 0.074974686 0.21149701
0003d0 3f 1d f4 be e0 f1 64 3e 1f 5e 0b be 60 a0 33 3e
       -0.47678563 0.22357893 -0.13610123 0.17541647
0003e0 33 3e 23 3e 03 9d 8c bc d5 86 87 bd 5f 7f 6f bd
       0.15941696 -0.017164713 -0.06617514 -0.05847108
0003f0 1e c4 81 3e cd c7 b9 3c 81 95 93 bc 68 12 43 be
       0.25344938 0.02267828 -0.018015625 -0.1904999

network.critic.2.bias f4 [64]
000000 00 00 00 00 00 00 00 00 00 00 00 00 00 00 00 00
       0.0 0.0 0.0 0.0
000010 00 00 00 00 00 00 00 00 00 00 00 00 00 00 00 00
       0.0 0.0 0.0 0.0
000020 00 00 00 00 00 00 00 00 00 00 00 00 00 00 00 00
       0.0 0.0 0.0 0.0
000030 00 00 00 00 00 00 00 00 00 00 00 00 00 00 00 00
       0.0 0.0 0.0 0.0
000040 00 00 00 00 00 00 00 00 00 00 00 00 00 00 00 00
       0.0 0.0 0.0 0.0
000050 00 00 00 00 00 00 00 00 00 00 00 00 00 00 00 00
       0.0 0.0 0.0 0.0
000060 00 00 00 00 00 00 00 00 00 00 00 00 00 00 00 00
       0.0 0.0 0.0 0.0
000070 00 00 00 00 00 00 00 00 00 00 00 00 00 00 00 00
       0.0 0.0 0.0 0.0
000080 00 00 00 00 00 00 00 00 00 00 00 00 00 00 00 00
       0.0 0.0 0.0 0.0
000090 00 00 00 00 00 00 00 00 00 00 00 00 00 00 00 00
       0.0 0.0 0.0 0.0
0000a0 00 00 00 00 00 00 00 00 00 00 00 00 00 00 00 00
       0.0 0.0 0.0 0.0
0000b0 00 00 00 00 00 00 00 00 00 00 00 00 00 00 00 00
       0.0 0.0 0.0 0.0
0000c0 00 00 00 00 00 00 00 00 00 00 00 00 00 00 00 00
       0.0 0.0 0.0 0.0
0000d0 00 00 00 00 00 00 00 00 00 00 00 00 00 00 00 00
       0.0 0.0 0.0 0.0
0000e0 00 00 00 00 00 00 00 00 00 00 00 00 00 00 00 00
       0.0 0.0 0.0 0.0
0000f0 00 00 00 00 00 00 00 00 00 00 00 00 00 00 00 00
       0.0 0.0 0.0 0.0

network.critic.4.weight f4 [1, 64]
000000 70 b4 d2 3d c2 1a aa bc 62 06 4b be d4 74 90 bc
       0.10288322 -0.020764712 -0.19826654 -0.017633833
000010 1a 9e a3 3d 7a 33 ad be c0 80 2d be 94 8b 40 3e
       0.0798914 -0.33828336 -0.16943645 0.18803245
000020 12 4a 75 3e ad 33 10 be 30 34 9a 3b f7 26 e4 3d
       0.23954037 -0.14082213 0.0047059283 0.111402445
000030 6b bd 79 3d 69 f2 0a 3d 6b a1 92 3b 98 bb 97 bd
       0.06097166 0.033922587 0.004474809 -0.074088275
000040 b4 0a 40 bd 2b 8e 73 3d 38 eb 21 3d 73 1b cb 3c
       -0.046885207 0.059461754 0.039530963 0.024793362
000050 fa e2 20 bd 53 16 85 bd b8 03 c3 3d 2e a0 41 be
       -0.03927896 -0.06498399 0.09522194 -0.1890876
000060 e6 97 eb 3d c7 bd eb 3d 1e d7 32 be c7 6c 51 3d
       0.11503582 0.115108065 -0.17464873 0.05112913
000070 d8 56 03 be 9e 55 83 3d e8 0c 3e bd 53 21 b9 bd
       -0.12826097 0.064128146 -0.046399027 -0.09039559
000080 57 ca ed bd 11 3c a1 3d 29 0c 36 be 60 6a 37 3e
       -0.11610859 0.07872785 -0.17778076 0.17911673
000090 b7 b9 ba bd 1b 10 50 3e 08 4f 87 bd 21 eb 73 be
       -0.091174535 0.20318644 -0.06606871 -0.23820163
0000a0 95 af cf bc f5 f4 8d 3d 1c 2b af bd b7 64 42 be
       -0.025352279 0.069314875 -0.08553144 -0.18983732
0000b0 bc b8 13 be d4 9f 2e bd 8f 73 4a 3e ef f0 3c bc
       -0.1442594 -0.042632893 0.19770645 -0.011532052
0000c0 30 44 a7 bd f9 c3 0f bd 23 83 c9 bc 6b 82 3b 3e
       -0.081673026 -0.035099003 -0.024598664 0.1831147
0000d0 f2 69 5e be 4a e3 21 3e 24 b6 46 3d 5b ed 44 be
       -0.21720102 0.1580936 0.048513547 -0.19231169
0000e0 5d 8b 31 be 9f 10 64 bd 76 db 64 3c 27 b4 22 bd
       -0.17338319 -0.055679914 0.013968339 -0.039722588
0000f0 5d 8a 85 3d e0 db 8d bd a0 d5 ce bd 60 36 61 bd
       0.06520531 -0.069267035 -0.100993395 -0.054983497

network.actor.0.weight f4 [64, 11]
000000 5a 57 ce bd 0c 31 66 bd fb 92 ba 3c c1 6d 8c 3e
       -0.10075255 -0.05619912 0.022775164 0.27427486
000010 b7 9d 78 3e e9 0b e3 bd 8a e0 b4 3e 02 75 2f be
       0.24278913 -0.11086256 0.3532756 -0.17134479
000020 be 0e 70 bd 75 fe a3 3d 9c 5f d1 bd 30 79 50 bd
       -0.05860781 0.08007518 -0.10223314 -0.050896823
000030 0c c7 33 3d 93 ba 1d 3e 95 18 6e be 81 de 26 3c
       0.043890998 0.15403204 -0.23251565 0.010184885
000040 0e ef d7 bc 29 92 42 be 7c 56 57 be 8d 14 a4 be
       -0.026359107 -0.19001068 -0.21029085 -0.3204693
000050 13 21 b9 3d 84 ce b1 3d f9 3c e5 3e d4 b5 17 be
       0.090395115 0.08681968 0.4477308 -0.14815456
000060 a7 31 7a be 43 b5 12 3e d4 cc de 3d ac 48 00 3e
       -0.24433003 0.14326958 0.108789116 0.12527722
000070 63 96 1e be 67 03 17 3e 4c 1b ca bd 77 2e 1a 3d
       -0.15487055 0.14747392 -0.09868488 0.03764197
000080 93 90 82 3d 20 af ba bc 18 29 1a 3e 27 b8 cd bd
       0.063752316 -0.022788584 0.15054739 -0.1004489
000090 33 4f 10 3e 37 f2 51 be 45 0e e7 3d 11 1b c6 be
       0.14092712 -0.20502554 0.112820186 -0.38692525
0000a0 8e 17 ab 3d 93 36 71 3d 38 93 28 3e 16 fd 3b be
       0.08354102 0.058889937 0.1646241 -0.18358263
0000b0 ee 67 3a 3e e1 86 8c bc ff c5 60 bd 21 09 a7 be
       0.18203709 -0.017154159 -0.054876324 -0.32624152
0000c0 8c e6 d6 3d 88 70 3f 3e 17 05 a4 bd 49 89 53 3d
       0.10493192 0.18695271 -0.08008783 0.051644597
0000d0 2d 82 64 be 8c 19 28 3c 66 6f 32 bd 83 aa b4 3d
       -0.22315283 0.010259997 -0.04356327 0.08821585
0000e0 22 dd 12 bd 1d d1 d1 3b 03 46 90 3c 2c c5 ce bd
       -0.03585542 0.006403102 0.01761151 -0.10096201
0000f0 dd 63 77 be c7 77 86 bd 3b a0 ed bd db 2c a2 3d
       -0.24159189 -0.065658145 -0.11602827 0.07918712
000100 1e 52 29 be 77 90 9e bd 54 5d a1 bb 1f 38 09 3e
       -0.16535231 -0.07742398 -0.0049244557 0.13400315
000110 73 98 c0 bd 2b 48 86 be fe 46 29 3d 8b 5f ba 3e
       -0.094040774 -0.26226935 0.04132747 0.36401019
000120 db fb a8 be 97 2b 09 be 39 0d 20 3e d0 2e 07 be
       -0.3300465 -0.13395534 0.15630044 -0.13201451
000130 6f 53 4e bc a4 ce 86 be 65 75 a0 3e f5 9b ad be
       -0.012593134 -0.2632953 0.31339565 -0.33908048
000140 b0 66 b1 3e dc fa 6a 3e 47 96 4b 3d 83 71 ab 3d
       0.34648657 0.22947258 0.049703863 0.0837126
000150 c2 e9 f1 3c 3b 4e c2 bc 0d 86 b2 3d b2 a9 b0 3d
       0.02953041 -0.023718944 0.087169744 0.08626117
000160 42 a5 f6 be 7c 83 97 bc 49 79 b8 bd 64 ca 15 3e
       -0.48172957 -0.018495314 -0.09007508 0.14627987
000170 a9 e2 6c bd 36 39 74 3e 59 3d 8d 3c f4 02 35 3e
       -0.057833347 0.23849949 0.017241167 0.17676908
000180 e9 f6 ad 3d b3 a0 eb bd f9 b7 3d 3c 63 e9 1d be
       0.0849436 -0.1150526 0.011579507 -0.15421061
000190 bc 48 3b 3e 18 a8 7f 3d 67 ba 94 3d 56 c2 af bc
       0.18289465 0.062416166 0.07262116 -0.021454971
0001a0 67 c4 a4 be dd 65 0d 3d f6 7f 41 3e 3b 28 aa be
       -0.32181093 0.034520973 0.1889647 -0.33233818
0001b0 99 40 8b 3e 8f e3 b0 bc 03 7c d3 3d 99 9f ca 3d
       0.27197722 -0.021592883 0.10326388 0.09893722
0001c0 0a 01 13 be 40 98 71 be f5 b5 56 be 67 43 0d 3c
       -0.14355865 -0.23593235 -0.20967849 0.008622027
0001d0 8e 10 7f 3d d7 7c c1 bd 6d cc 1e 3e 92 3d 10 3e
       0.062271647 -0.094476394 0.1550767 0.14085987
0001e0 87 14 ea 3d 40 26 dd bd b5 a7 83 3e b8 f5 8f 3e
       0.114296965 -0.10798311 0.25713888 0.28117156
0001f0 d6 04 54 bc 15 e8 6d be ce ee 55 be 88 b8 38 be
       -0.012940606 -0.23233064 -0.20891878 -0.18039143
000200 56 95 0c 3e 64 fb c6 3e 91 1c 60 3d 8a 48 6e bd
       0.13728842 0.3886367 0.054714743 -0.058174647
000210 ab c1 8e bd d9 f3 d1 3d da 03 4a 3e b5 e9 87 3d
       -0.06970533 0.102515884 0.19728032 0.06636373
000220 c4 95 56 3e 9c 0c 96 3d a6 14 2c 3d d7 09 93 3d
       0.20955569 0.07326624 0.04201188 0.07179611
000230 67 e3 3a bd a8 2d da bd 58 34 3f 3e 2f 0c 20 3e
       -0.045627024 -0.106532395 0.18672311 0.15629648
000240 08 96 fe 3d b0 81 95 3e 02 5a 8e be 17 a4 a5 3e
       0.1243096 0.29200506 -0.27803046 0.32351753
000250 b7 0e 2d 3d 2a e4 49 bc 8c 78 85 be 91 da 8d bd
       0.04225036 -0.012322465 -0.26068532 -0.06926454
000260 0b 3b 47 be 50 27 0e 3e f1 59 37 be 5d 00 47 3d
       -0.19456117 0.13882184 -0.17905404 0.04858433
000270 e9 02 90 be 2b e4 dc 3d 26 db 73 bd 61 0c ce 3d
       -0.2812722 0.10785707 -0.059535168 0.10060955
000280 90 e8 85 3c 40 68 a8 be 03 c5 0c be 3f 0c a3 3d
       0.016346246 -0.32892036 -0.13747029 0.0796132
000290 18 52 96 bd 64 51 11 be 29 2e f3 be 1a 85 92 be
       -0.07339877 -0.14191204 -0.47496155 -0.28617173
0002a0 08 95 2f 3d 3f be 60 3e 72 e8 82 bd bd 97 7a be
       0.042866737 0.21947573 -0.06391992 -0.24471946
0002b0 89 cf f8 bd c2 dd 04 bd 41 2f ba 3e 39 6f c5 3e
       -0.12148959 -0.032438047 0.36364177 0.3856142
0002c0 24 14 ff bd b6 6b 8e 3d 15 25 00 3e ba 7a 0c 3e
       -0.124550134 0.06954138 0.12514146 0.13718691
0002d0 5d 77 ce bc 99 23 ef 3c 5e e2 ae bc 32 0d ec be
       -0.025203401 0.029191779 -0.021348175 -0.46103817
0002e0 fd 78 9b 3e 76 e6 90 3d 91 32 9d bd 04 85 68 3d
       0.30365744 0.07075207 -0.076756604 0.05676748
0002f0 0b 03 6a 3e 1f d0 59 be 73 26 2a 3d 91 9a 14 bd
       0.22852723 -0.21270798 0.041540574 -0.03628022
000300 90 b4 9f bd 56 61 f2 be 6d d0 aa 3d 06 f1 b8 3c
       -0.077981114 -0.47339886 0.08340535 0.022575866
000310 77 2d b7 bd a4 66 8d bc 88 e0 1d be 87 1f 90 3e
       -0.089442186 -0.017260857 -0.15417683 0.28149053
000320 dd 83 a3 be 48 3f a2 bd ef f0 fa ba ad 47 97 3d
       -0.3193654 -0.07922226 -0.001914529 0.07386718
000330 26 b8 3f be d3 70 1c be c1 d7 0d 3e 6b e0 14 be
       -0.18722591 -0.15277414 0.13851835 -0.14538734
000340 f0 7e a0 bd d9 69 68 3e c5 fd 49 bd ef 99 3c be
       -0.078367114 0.22696628 -0.04931428 -0.18418096
000350 3c 52 2a be 2d c3 e7 bc 24 c2 8c 3e 06 4f d7 bc
       -0.16632932 -0.02829131 0.27491868 -0.026282798
000360 f2 42 58 bd 11 0c 4f be 1d 35 bc 3d 62 36 1b bd
       -0.05279822 -0.20219447 0.09189818 -0.03789366
000370 46 0a db bd da 3b 8f 3d 46 b4 09 bd 17 3a be 3d
       -0.10695319 0.06993838 -0.033619188 0.092884235
000380 f8 b2 9f 3d 57 2c c2 bd 31 b7 8d bc b3 46 1b 3e
       0.077978075 -0.094811134 -0.017299267 0.15163688
000390 be 27 fb 3d cc d7 25 3b 42 8b 42 3e cd 64 1f be
       0.122634396 0.0025305627 0.18998435 -0.15565796
0003a0 c5 82 c9 be 8c 1c 9f 3e 9d 8d f0 bc fc 9a 4d bc
       -0.39357582 0.31076467 -0.029364401 -0.012549158
0003b0 1a 0e 08 bd 88 22 58 be 61 f7 e1 bd 2c af 4f be
       -0.033216573 -0.21106923 -0.11033512 -0.20281667
0003c0 87 4a cb 3d fb 9c a9 bd eb e8 8b 3d 6f dd 73 be
       0.09926324 -0.08281895 0.06831535 -0.23814939
0003d0 53 0e 05 3e f3 a7 94 3d eb eb 4a be b9 6a cb 3e
       0.12993746 0.07258596 -0.19816558 0.3972986
0003e0 5f 62 d2 bd db 54 c2 be 74 34 1e 3e 53 a2 cc be
       -0.10272669 -0.37955365 0.15449697 -0.39967594
0003f0 a8 cb 5e 3e 78 80 9c 3e 93 8f fe 3c 59 cb 4b 3d
       0.21757376 0.30566764 0.03107432 0.049754474

network.actor.0.bias f4 [64]
000000 00 00 00 00 00 00 00 00 00 00 00 00 00 00 00 00
       0.0 0.0 0.0 0.0
000010 00 00 00 00 00 00 00 00 00 00 00 00 00 00 00 00
       0.0 0.0 0.0 0.0
000020 00 00 00 00 00 00 00 00 00 00 00 00 00 00 00 00
       0.0 0.0 0.0 0.0
000030 00 00 00 00 00 00 00 00 00 00 00 00 00 00 00 00
       0.0 0.0 0.0 0.0
000040 00 00 00 00 00 00 00 00 00 00 00 00 00 00 00 00
       0.0 0.0 0.0 0.0
000050 00 00 00 00 00 00 00 00 00 00 00 00 00 00 00 00
       0.0 0.0 0.0 0.0
000060 00 00 00 00 00 00 00 00 00 00 00 00 00 00 00 00
       0.0 0.0 0.0 0.0
000070 00 00 00 00 00 00 00 00 00 00 00 00 00 00 00 00
       0.0 0.0 0.0 0.0
000080 00 00 00 00 00 00 00 00 00 00 00 00 00 00 00 00
       0.0 0.0 0.0 0.0
000090 00 00 00 00 00 00 00 00 00 00 00 00 00 00 00 00
       0.0 0.0 0.0 0.0
0000a0 00 00 00 00 00 00 00 00 00 00 00 00 00 00 00 00
       0.0 0.0 0.0 0.0
0000b0 00 00 00 00 00 00 00 00 00 00 00 00 00 00 00 00
       0.0 0.0 0.0 0.0
0000c0 00 00 00 00 00 00 00 00 00 00 00 00 00 00 00 00
       0.0 0.0 0.0 0.0
0000d0 00 00 00 00 00 00 00 00 00 00 00 00 00 00 00 00
       0.0 0.0 0.0 0.0
0000e0 00 00 00 00 00 00 00 00 00 00 00 00 00 00 00 00
       0.0 0.0 0.0 0.0
0000f0 00 00 00 00 00 00 00 00 00 00 00 00 00 00 00 00
       0.0 0.0 0.0 0.0

network.actor.2.weight f4 [64, 64]
000000 5f d3 b7 bd 76 50 a2 be f7 86 82 be 2b d8 7a 3e
       -0.08975863 -0.31702012 -0.25493595 0.24496524
000010 67 97 86 3e 92 c9 3d 3b cf 0d 8e 3e 4a d5 5b be
       0.26287386 0.0028959257 0.2774491 -0.21468082
000020 71 00 9a 3e 69 15 ec bd ec ae 19 be 66 04 f8 bd
       0.30078462 -0.11527521 -0.15008134 -0.12110214
000030 0d 40 19 be d2 c5 a6 bd bf 9f dc 3d de 2a 8a 3e
       -0.1496584 -0.081432 0.10772657 0.2698583
000040 a2 aa 7e 3e f4 bb 52 bb 4f 9d 0f 3e 51 68 20 bd
       0.24869779 -0.0032155486 0.14024852 -0.039161984
000050 f7 9c 74 3e d2 bb 1c 3e c1 39 9e bd 25 da d6 bc
       0.23888002 0.15306023 -0.077258594 -0.026227066
000060 61 42 a5 be 99 6b 8b bb 82 59 48 bd f2 61 8e 3e
       -0.32277206 -0.00425477 -0.048913486 0.278091
000070 25 8a 0b 3e 20 d5 0e 3e b1 e8 8b 3e dd c3 38 be
       0.13626917 0.13948488 0.27325967 -0.18043466
000080 f9 a0 78 3d 23 61 82 bc 35 5c 9b bb 9f c9 91 3d
       0.06070039 -0.015915459 -0.0047412165 0.07118534
000090 8d 6d ab 3e e8 ab 24 bc 7f ba e2 bd 32 c9 bf bc
       0.33482018 -0.010050751 -0.110707276 -0.023411367
0000a0 f3 da a4 3d ef dd 2f bc 54 b7 5f bd 3f 2d 90 3e
       0.08049574 -0.010734065 -0.054618195 0.2815952
0000b0 ff 4b 2e 3d e9 d1 e1 3c 16 50 91 3e 78 5e a3 3d
       0.042552944 0.027565913 0.28381413 0.07977003
0000c0 06 7b 34 be 64 47 89 be 25 42 05 3f e9 4c 77 bd
       -0.17625055 -0.2681228 0.52054054 -0.06037608
0000d0 ba e2 32 be ac 65 6c bd f4 2e 41 be cf 83 2e 3e
       -0.17469302 -0.05771415 -0.18865567 0.17042468
0000e0 a8 82 1b bc b4 cc 9b bd c0 33 a0 3d 02 ad 0b 3d
       -0.0094916 -0.076074034 0.078223705 0.03410054
0000f0 28 39 95 3d 51 dc 1e bd 23 6b e0 3d 0d 7f d7 3b
       0.07286292 -0.03878433 0.10957935 0.006576425
000100 fd 96 8c 3d 9c 37 c3 be 05 8a b4 be 70 07 1a be
       0.06864736 -0.38128364 -0.3526155 -0.150419
000110 9d a3 72 3e 51 b7 24 3d 65 4a 30 bd dd 6e c1 bb
       0.23695226 0.040213887 -0.0430397 -0.0059031085
000120 5b aa 5c be 6c 43 04 3d 5d 52 8a bd 43 20 37 be
       -0.2154936 0.03229086 -0.06753991 -0.178834
000130 f4 9f 5a 3d 87 5a e6 bd cc a2 43 3e bb 52 5d 3d
       0.0533752 -0.112477355 0.19105071 0.054033976
000140 49 b1 a9 bd d4 2d 2d 3e b2 f3 43 be c2 be ae 3d
       -0.082857676 0.16912013 -0.19135931 0.08532478
000150 bc e1 9b bb a6 5b 18 be 66 81 6b bd 83 d8 ac 3e
       -0.0047571342 -0.14878711 -0.05749645 0.33758935
000160 38 22 bb 3c f9 54 d3 bd 9a 84 19 3e fc d0 4d be
       0.022843465 -0.103189416 0.1499199 -0.20099252
000170 db 0e 3c 3e 65 22 90 bd cd f9 a0 be fe 9b 90 3e
       0.18365042 -0.0703781 -0.31440583 0.28244013
000180 24 15 9a bd 66 f1 c7 3c 36 b8 1e be bf da d8 bd
       -0.075235635 0.0244071 -0.15499958 -0.105885975
000190 38 c1 61 be 5e 9b 27 3d bd 2f 31 be b6 0e 91 3d
       -0.22046363 0.040919654 -0.17303367 0.07082884
0001a0 24 83 93 3d 70 d3 bf 3e 96 74 4c 3e ab 3a ca 3d
       0.072027475 0.37466002 0.19966349 0.09874471
0001b0 18 67 6c be 3b ab 8f be c7 be 44 3e 37 e7 51 3e
       -0.23086202 -0.28060326 0.19213401 0.20498358
0001c0 49 81 2b bd 6f 28 13 3d 91 e5 9c bc 29 9c 17 3e
       -0.041871343 0.035927232 -0.019152435 0.14805664
0001d0 8f ef 8d be 1f 3c dd 3d a5 a5 2d bc d2 f3 34 3e
       -0.2772183 0.10802483 -0.010598575 0.17671135
0001e0 9c 65 b9 3e d9 49 f4 3d e0 3a fa 3d 96 5e a4 3d
       0.36210334 0.11928148 0.12218261 0.08025853
0001f0 d8 83 91 be ad ad 83 3d e9 b8 3d 3e fe ec 31 be
       -0.284209 0.064296104 0.18527569 -0.17375562
000200 13 17 a6 be 05 64 d9 3a a3 bd 4a 3c c3 55 59 3d
       -0.3243948 0.0016585594 0.0123743145 0.053060304
000210 a7 91 b2 bd 50 a0 21 be a9 d7 4a 3e b3 9b 0a bc
       -0.08719187 -0.1578381 0.1980883 -0.008459973
000220 50 1b b2 be 53 b4 17 3d 04 3e 1e 3d f4 35 f9 3d
       -0.34786463 0.037037205 0.03863336 0.12168494
000230 b9 b4 54 3e d4 69 85 3d 84 b1 94 bd 26 29 e6 3d
       0.20772065 0.06514326 -0.07260421 0.11238317
000240 6e 64 82 3e f4 46 39 be 2d 56 4f be 54 88 93 bc
       0.25467247 -0.18093473 -0.20247717 -0.018009342
000250 4d a4 03 be 84 32 86 bc 2c 65 27 be 93 7b d7 3d
       -0.12855645 -0.01638151 -0.16347188 0.10521617
000260 20 ae a7 be e0 43 90 3d e8 40 ca 3e 90 82 4d 3e
       -0.32750034 0.07044196 0.39502645 0.20069337
000270 0d 10 d7 3d 9f 93 86 bd 40 5f 26 3c 9d 5e 58 bd
       0.10501108 -0.06571125 0.010154545 -0.052824605
000280 a5 4b 02 3e 62 55 88 be e3 12 c9 3c c4 97 f9 bd
       0.12724169 -0.26627642 0.024545139 -0.1218715
000290 1a 3b bd 3c dd 28 6f 3e 4a 23 29 3d d8 db ee be
       0.02309947 0.23355432 0.04129342 -0.46652102
0002a0 20 cd 94 be 5c 56 0c 3e 6a 67 ae 3d 81 2d 23 bc
       -0.29062748 0.13704818 0.085158184 -0.009959579
0002b0 d9 9b 2d 3d ce ca 87 3e 0c 97 bf 3b 90 a3 1c be
       0.042384956 0.26521915 0.0058468636 -0.15296769
0002c0 b3 01 3e 3e 35 e8 3d be fe a6 3a be ef a9 f3 3d
       0.18555336 -0.18545611 -0.18227765 0.11897647
0002d0 81 d1 8d 3d 7e d0 90 be 0f cc e6 3d ba 46 90 3d
       0.06924725 -0.28284067 0.1126939 0.0704474
0002e0 f4 57 a2 3e fe 95 30 be a3 ae b6 bd fd 1a ba bd
       0.31707728 -0.17244717 -0.08920028 -0.09087179
0002f0 77 42 e7 bd 63 76 a8 be c4 85 2d 3d 28 a2 20 be
       -0.11291974 -0.32902822 0.042363897 -0.15686858
000300 01 d7 90 bb f4 05 bf bd e4 27 b3 3d 2b d0 91 bd
       -0.0044201617 -0.09327307 0.08747843 -0.07119783
000310 0f a5 69 3d ce 0f 94 3c 88 e0 81 3e 87 a2 6c be
       0.057042178 0.018073943 0.25366616 -0.23108874
000320 30 41 91 3d b2 47 cc bd 8f 4a 17 3d 94 56 18 be
       0.07092512 -0.09974612 0.03693634 -0.14876777
000330 31 19 25 3e 49 53 52 3e 1b 12 40 be d4 a2 05 be
       0.16122891 0.20539583 -0.18756907 -0.13050395
000340 81 fa 38 be d9 5b 52 be b6 97 c1 be e5 d2 fa 3b
       -0.1806431 -0.2054285 -0.3781106 0.007654535
000350 fd 6c 36 3e d6 64 5f 3e 7c 50 b8 bd b4 84 2d be
       0.17815013 0.2181581 -0.08999726 -0.16945153
000360 5b 80 47 bd a2 d8 a4 be 4d f8 9a 3c f5 d8 44 be
       -0.048706394 -0.32196528 0.018917227 -0.19223388
000370 cb d3 6f 3e d7 52 8c 3e 94 d7 9d bc 63 c4 44 3d
       0.23420636 0.27406952 -0.019267835 0.04803885
000380 50 13 1a 3e 2c 63 77 3e a0 69 72 be d5 0f ac 3e
       0.1504643 0.24158925 -0.23673105 0.3360583
000390 b4 f2 b0 3e bc a4 d1 be 62 38 e8 3d c8 f7 cd 3d
       0.34560168 -0.40945995 0.11338879 0.10057026
0003a0 e1 2c 88 bd 54 dc 82 3e 48 a9 02 3e 51 f5 e2 bd
       -0.06649185 0.25558722 0.12759888 -0.11081947
0003b0 ba d5 01 3e da 71 01 3e 1f b3 d2 be 6f 41 13 3e
       0.12679186 0.12641087 -0.41152284 0.1438043
0003c0 06 54 73 3d bd 92 ab 3d 64 7b 14 be ae d4 96 3d
       0.059406303 0.083775975 -0.14500195 0.07364784
0003d0 fd a6 f9 bd f6 4d e9 bc eb 91 2f bc d4 75 83 3c
       -0.121900536 -0.028479557 -0.010715942 0.016047396
0003e0 ed 90 be bc 06 88 46 3d 70 36 d1 bd fa aa 5f 3e
       -0.023262465 0.048469566 -0.10215461 0.21842566
0003f0 de c7 8d 3d 5c 68 37 be 74 91 f2 3c 13 86 72 be
       0.06922887 -0.17910904 0.029610373 -0.23683958

network.actor.2.bias f4 [64]
000000 00 00 00 00 00 00 00 00 00 00 00 00 00 00 00 00
       0.0 0.0 0.0 0.0
000010 00 00 00 00 00 00 00 00 00 00 00 00 00 00 00 00
       0.0 0.0 0.0 0.0
000020 00 00 00 00 00 00 00 00 00 00 00 00 00 00 00 00
       0.0 0.0 0.0 0.0
000030 00 00 00 00 00 00 00 00 00 00 00 00 00 00 00 00
       0.0 0.0 0.0 0.0
000040 00 00 00 00 00 00 00 00 00 00 00 00 00 00 00 00
       0.0 0.0 0.0 0.0
000050 00 00 00 00 00 00 00 00 00 00 00 00 00 00 00 00
       0.0 0.0 0.0 0.0
000060 00 00 00 00 00 00 00 00 00 00 00 00 00 00 00 00
       0.0 0.0 0.0 0.0
000070 00 00 00 00 00 00 00 00 00 00 00 00 00 00 00 00
       0.0 0.0 0.0 0.0
000080 00 00 00 00 00 00 00 00 00 00 00 00 00 00 00 00
       0.0 0.0 0.0 0.0
000090 00 00 00 00 00 00 00 00 00 00 00 00 00 00 00 00
       0.0 0.0 0.0 0.0
0000a0 00 00 00 00 00 00 00 00 00 00 00 00 00 00 00 00
       0.0 0.0 0.0 0.0
0000b0 00 00 00 00 00 00 00 00 00 00 00 00 00 00 00 00
       0.0 0.0 0.0 0.0
0000c0 00 00 00 00 00 00 00 00 00 00 00 00 00 00 00 00
       0.0 0.0 0.0 0.0
0000d0 00 00 00 00 00 00 00 00 00 00 00 00 00 00 00 00
       0.0 0.0 0.0 0.0
0000e0 00 00 00 00 00 00 00 00 00 00 00 00 00 00 00 00
       0.0 0.0 0.0 0.0
0000f0 00 00 00 00 00 00 00 00 00 00 00 00 00 00 00 00
       0.0 0.0 0.0 0.0

network.actor.4.weight f4 [2, 64]
000000 6b c1 07 3b fd 04 f4 b9 5d 8f f2 ba 99 3f bb 3a
       0.0020714651 -0.00046543023 -0.001850586 0.0014285921
000010 9e 40 e9 b9 2e 13 a8 3a b4 1e 57 ba 0b 8d fd 3a
       -0.00044489367 0.0012823099 -0.0008206174 0.0019344402
000020 f6 eb 15 ba e2 a5 ec 38 bc 6f 1c 3a d0 ee 1a b8
       -0.000571906 0.00011284255 0.00059675775 -3.6938873e-05
000030 ca bd 7c ba 95 1b 91 3a f4 8c af 3a 09 fb 99 3a
       -0.0009641318 0.0011070842 0.0013393448 0.0011747788
000040 c6 74 c0 ba 4b bb 0e ba 10 d1 27 ba 97 d2 aa 3a
       -0.0014683239 -0.0005444779 -0.0006401697 0.0013032731
000050 4b 31 aa ba 0d 3a 07 ba c7 c7 a7 b8 02 6f 0e ba
       -0.0012984661 -0.00051584915 -8.000392e-05 -0.00054334116
000060 6d 21 c5 ba b4 b1 23 bb 7e 88 cc 3a af d8 03 bb
       -0.0015039869 -0.0024977745 0.0015604643 -0.0020118167
000070 ea 7a 21 3a 17 5b b1 38 09 3c 15 3b 99 f0 d4 3a
       0.0006159978 8.4569845e-05 0.002277138 0.001624602
000080 73 6b 7a b9 0a d3 f8 b9 af ee 05 b9 24 11 ad 3a
       -0.00023881886 -0.00047459482 -0.00012772785 0.0013203961
000090 e6 b9 4e bb 57 ab 06 3a f7 de ae 39 1f ee 16 bb
       -0.003154391 0.0005137226 0.00033353988 -0.0023030115
0000a0 35 26 d2 3a bc 7c 46 3a 79 ec d2 ba b9 5f d0 ba
       0.0016033115 0.00075716875 -0.0016092203 -0.0015897668
0000b0 be 77 d9 ba 64 a6 b1 39 32 15 ae ba 2b d1 f2 b9
       -0.0016591472 0.00033884041 -0.0013281463 -0.0004631368
0000c0 9e f4 d6 39 1e 5f 9a 3a d6 18 9f ba 93 91 5c b9
       0.00040999515 0.0011777615 -0.0012138139 -0.00021035066
0000d0 89 e4 d7 ba c1 24 28 3a 37 80 a9 ba e5 54 ad ba
       -0.0016471307 0.0006414168 -0.0012931888 -0.0013224153
0000e0 2b 47 9e ba 50 ec 42 ba bc c4 7c b8 41 22 30 ba
       -0.0012075653 -0.0007435726 -6.0264705e-05 -0.00067189714
0000f0 06 9d 04 bb 21 a8 58 3a 47 d6 a9 b8 5b 4b 9a 39
       -0.0020235195 0.0008264799 -8.09846e-05 0.00029429313
000100 cb 7c c6 3a 70 cc a5 b9 a0 70 de 3a c5 80 58 b9
       0.0015143392 -0.0003162357 0.0016970821 -0.00020647336
000110 a6 f1 e4 ba 81 6b 8b ba c8 53 83 ba 54 31 c8 ba
       -0.0017467036 -0.0010636897 -0.0010019476 -0.001527349
000120 f7 63 73 3a 3d 6f 5c b9 b2 40 b8 3a 97 e5 12 b9
       0.000928461 -0.00021022274 0.0014057367 -0.00014009174
000130 94 00 0b 3b ab 06 3c 39 47 0e 5e 38 fe dc 6f 3a
       0.0021210061 0.00017931561 5.294222e-05 0.0009150057
000140 63 1a 7f 3a 54 37 c8 39 2f 81 e6 ba 90 cd 49 b9
       0.000973141 0.00038188195 -0.0017586107 -0.00019245432
000150 73 27 55 ba 12 50 b4 ba c6 1a 2f 3a 6e a9 f4 ba
       -0.00081311836 -0.0013756773 0.000667971 -0.0018666217
000160 20 66 2d bb 3e e7 62 ba 53 4b 5b ba e2 15 03 3b
       -0.0026458576 -0.00086556736 -0.0008365411 0.0020002057
000170 7e a2 dd b9 99 56 12 3b 5d 1a 88 3a a5 d8 4c ba
       -0.0004227347 0.0022329448 0.0010383833 -0.0007814265
000180 69 3c 6f ba bb 12 ec 39 39 47 ac ba b2 64 4a 39
       -0.0009126128 0.00045027383 -0.0013143785 0.00019301733
000190 b0 04 8e 38 55 80 70 3a 1d 60 f2 ba 0b da 2f ba
       6.771961e-05 0.00091743964 -0.0018491779 -0.0006708211
0001a0 f8 4e dd ba b2 cf 6d ba 4f a0 b2 ba ef 34 88 39
       -0.0016884496 -0.00090717815 -0.0013628098 0.0002597938
0001b0 33 0b f8 3a f9 9a d2 ba f2 72 70 ba 05 ee da ba
       0.0018924236 -0.0016067914 -0.00091724016 -0.0016703015
0001c0 bb 2d 70 3a 19 22 b1 3a 61 53 d1 ba ff 0b 0f ba
       0.0009162088 0.001351419 -0.0015970283 -0.00054568046
0001d0 ae 9d 55 3a 02 f6 5e 3a 85 99 39 ba 6a 67 b4 ba
       0.0008148801 0.0008505286 -0.0007080066 -0.001376373
0001e0 da b3 a3 3a f3 4e 14 39 5b d5 ba 3a 5f 6b 8f 3a
       0.0012489513 0.00014143791 0.0014254259 0.0010942033
0001f0 52 41 cf 3a 9b c7 bd 3a 53 45 2e 3b 82 82 e9 b9
       0.0015812314 0.0014479043 0.0026591613 -0.0004453846

network.actor.4.bias f4 [2]
000000 00 00 00 00 00 00 00 00
       0.0 0.0
